…
weight_decay: 0.0005
stepsize: 60000
snapshot: 0
snapshot_prefix: "zf_rpn"
average_loss: 100
I1016 16:31:36.095479  5635 solver.cpp:81] Creating training net from train_net file: models/pascal_voc/ZF/faster_rcnn_alt_opt/stage1_rpn_train.pt
I1016 16:31:36.096179  5635 net.cpp:49] Initializing net from parameters: 
name: "ZF"
state {
  phase: TRAIN
}
layer {
  name: "input-data"
  type: "Python"
  top: "data"
  top: "im_info"
  top: "gt_boxes"
  python_param {
    module: "roi_data_layer.layer"
    layer: "RoIDataLayer"
    param_str: "\'num_classes\': 2"
  }
}
layer {
  name: "conv1"
  type: "Convolution"
  bottom: "data"
  top: "conv1"
  param {
    lr_mult: 1
  }
  param {
    lr_mult: 2
  }
  convolution_param {
    num_output: 96
    pad: 3
    kernel_size: 7
    stride: 2
  }
}
layer {
  name: "relu1"
  type: "ReLU"
  bottom: "conv1"
  top: "conv1"
}
layer {
  name: "norm1"
  type: "LRN"
  bottom: "conv1"
  top: "norm1"
  lrn_param {
    local_size: 3
    alpha: 5e-05
    beta: 0.75
    norm_region: WITHIN_CHANNEL
    engine: CAFFE
  }
}
layer {
  name: "pool1"
  type: "Pooling"
  bottom: "norm1"
  top: "pool1"
  pooling_param {
    pool: MAX
    kernel_size: 3
    stride: 2
    pad: 1
  }
}
layer {
  name: "conv2"
  type: "Convolution"
  bottom: "pool1"
  top: "conv2"
  param {
    lr_mult: 1
  }
  param {
    lr_mult: 2
  }
  convolution_param {
    num_output: 256
    pad: 2
    kernel_size: 5
    stride: 2
  }
}
layer {
  name: "relu2"
  type: "ReLU"
  bottom: "conv2"
  top: "conv2"
}
layer {
  name: "norm2"
  type: "LRN"
  bottom: "conv2"
  top: "norm2"
  lrn_param {
    local_size: 3
    alpha: 5e-05
    beta: 0.75
    norm_region: WITHIN_CHANNEL
    engine: CAFFE
  }
}
layer {
  name: "pool2"
  type: "Pooling"
  bottom: "norm2"
  top: "pool2"
  pooling_param {
    pool: MAX
    kernel_size: 3
    stride: 2
    pad: 1
  }
}
layer {
  name: "conv3"
  type: "Convolution"
  bottom: "pool2"
  top: "conv3"
  param {
    lr_mult: 1
  }
  param {
    lr_mult: 2
  }
  convolution_param {
    num_output: 384
    pad: 1
    kernel_size: 3
    stride: 1
  }
}
layer {
  name: "relu3"
  type: "ReLU"
  bottom: "conv3"
  top: "conv3"
}
layer {
  name: "conv4"
  type: "Convolution"
  bottom: "conv3"
  top: "conv4"
  param {
    lr_mult: 1
  }
  param {
    lr_mult: 2
  }
  convolution_param {
    num_output: 384
    pad: 1
    kernel_size: 3
    stride: 1
  }
}
layer {
  name: "relu4"
  type: "ReLU"
  bottom: "conv4"
  top: "conv4"
}
layer {
  name: "conv5"
  type: "Convolution"
  bottom: "conv4"
  top: "conv5"
  param {
    lr_mult: 1
  }
  param {
    lr_mult: 2
  }
  convolution_param {
    num_output: 256
    pad: 1
    kernel_size: 3
    stride: 1
  }
}
layer {
  name: "relu5"
  type: "ReLU"
  bottom: "conv5"
  top: "conv5"
}
layer {
  name: "rpn_conv1"
  type: "Convolution"
  bottom: "conv5"
  top: "rpn_conv1"
  param {
    lr_mult: 1
  }
  param {
    lr_mult: 2
  }
  convolution_param {
    num_output: 256
    pad: 1
    kernel_size: 3
    stride: 1
    weight_filler {
      type: "gaussian"
      std: 0.01
    }
    bias_filler {
      type: "constant"
      value: 0
    }
  }
}
layer {
  name: "rpn_relu1"
  type: "ReLU"
  bottom: "rpn_conv1"
  top: "rpn_conv1"
}
layer {
  name: "rpn_cls_score"
  type: "Convolution"
  bottom: "rpn_conv1"
  top: "rpn_cls_score"
  param {
    lr_mult: 1
  }
  param {
    lr_mult: 2
  }
  convolution_param {
    num_output: 18
    pad: 0
    kernel_size: 1
    stride: 1
    weight_filler {
      type: "gaussian"
      std: 0.01
    }
    bias_filler {
      type: "constant"
      value: 0
    }
  }
}
layer {
  name: "rpn_bbox_pred"
  type: "Convolution"
  bottom: "rpn_conv1"
  top: "rpn_bbox_pred"
  param {
    lr_mult: 1
  }
  param {
    lr_mult: 2
  }
  convolution_param {
    num_output: 36
    pad: 0
    kernel_size: 1
    stride: 1
    weight_filler {
      type: "gaussian"
      std: 0.01
    }
    bias_filler {
      type: "constant"
      value: 0
    }
  }
}
layer {
  name: "rpn_cls_score_reshape"
  type: "Reshape"
  bottom: "rpn_cls_score"
  top: "rpn_cls_score_reshape"
  reshape_param {
    shape {
      dim: 0
      dim: 2
      dim: -1
      dim: 0
    }
  }
}
layer {
  name: "rpn-data"
  type: "Python"
  bottom: "rpn_cls_score"
  bottom: "gt_boxes"
  bottom: "im_info"
  bottom: "data"
  top: "rpn_labels"
  top: "rpn_bbox_targets"
  top: "rpn_bbox_inside_weights"
  top: "rpn_bbox_outside_weights"
  python_param {
    module: "rpn.anchor_target_layer"
    layer: "AnchorTargetLayer"
    param_str: "\'feat_stride\': 16"
  }
}
layer {
  name: "rpn_loss_cls"
  type: "SoftmaxWithLoss"
  bottom: "rpn_cls_score_reshape"
  bottom: "rpn_labels"
  top: "rpn_cls_loss"
  loss_weight: 1
  propagate_down: true
  propagate_down: false
  loss_param {
    ignore_label: -1
    normalize: true
  }
}
layer {
  name: "rpn_loss_bbox"
  type: "SmoothL1Loss"
  bottom: "rpn_bbox_pred"
  bottom: "rpn_bbox_targets"
  bottom: "rpn_bbox_inside_weights"
  bottom: "rpn_bbox_outside_weights"
  top: "rpn_loss_bbox"
  loss_weight: 1
  smooth_l1_loss_param {
    sigma: 3
  }
}
layer {
  name: "dummy_roi_pool_conv5"
  type: "DummyData"
  top: "dummy_roi_pool_conv5"
  dummy_data_param {
    data_filler {
      type: "gaussian"
      std: 0.01
    }
    shape {
      dim: 1
      dim: 9216
    }
  }
}
layer {
  name: "fc6"
  type: "InnerProduct"
  bottom: "dummy_roi_pool_conv5"
  top: "fc6"
  param {
    lr_mult: 0
    decay_mult: 0
  }
  param {
    lr_mult: 0
    decay_mult: 0
  }
  inner_product_param {
    num_output: 4096
  }
}
layer {
  name: "relu6"
  type: "ReLU"
  bottom: "fc6"
  top: "fc6"
}
layer {
  name: "fc7"
  type: "InnerProduct"
  bottom: "fc6"
  top: "fc7"
  param {
    lr_mult: 0
    decay_mult: 0
  }
  param {
    lr_mult: 0
    decay_mult: 0
  }
  inner_product_param {
    num_output: 4096
  }
}
layer {
  name: "silence_fc7"
  type: "Silence"
  bottom: "fc7"
}
I1016 16:31:36.096297  5635 layer_factory.hpp:77] Creating layer input-data
I1016 16:31:36.096719  5635 net.cpp:106] Creating Layer input-data
I1016 16:31:36.096729  5635 net.cpp:411] input-data -> data
I1016 16:31:36.096740  5635 net.cpp:411] input-data -> im_info
I1016 16:31:36.096745  5635 net.cpp:411] input-data -> gt_boxes
RoiDataLayer: name_to_top: {'gt_boxes': 2, 'data': 0, 'im_info': 1}
I1016 16:31:36.104498  5635 net.cpp:150] Setting up input-data
I1016 16:31:36.104512  5635 net.cpp:157] Top shape: 1 3 600 1000 (1800000)
I1016 16:31:36.104516  5635 net.cpp:157] Top shape: 1 3 (3)
I1016 16:31:36.104519  5635 net.cpp:157] Top shape: 1 4 (4)
I1016 16:31:36.104521  5635 net.cpp:165] Memory required for data: 7200028
I1016 16:31:36.104526  5635 layer_factory.hpp:77] Creating layer data_input-data_0_split
I1016 16:31:36.104532  5635 net.cpp:106] Creating Layer data_input-data_0_split
I1016 16:31:36.104537  5635 net.cpp:454] data_input-data_0_split <- data
I1016 16:31:36.104542  5635 net.cpp:411] data_input-data_0_split -> data_input-data_0_split_0
I1016 16:31:36.104548  5635 net.cpp:411] data_input-data_0_split -> data_input-data_0_split_1
I1016 16:31:36.104583  5635 net.cpp:150] Setting up data_input-data_0_split
I1016 16:31:36.104595  5635 net.cpp:157] Top shape: 1 3 600 1000 (1800000)
I1016 16:31:36.104616  5635 net.cpp:157] Top shape: 1 3 600 1000 (1800000)
I1016 16:31:36.104619  5635 net.cpp:165] Memory required for data: 21600028
I1016 16:31:36.104620  5635 layer_factory.hpp:77] Creating layer conv1
I1016 16:31:36.104640  5635 net.cpp:106] Creating Layer conv1
I1016 16:31:36.104643  5635 net.cpp:454] conv1 <- data_input-data_0_split_0
I1016 16:31:36.104647  5635 net.cpp:411] conv1 -> conv1
I1016 16:31:36.216291  5635 net.cpp:150] Setting up conv1
I1016 16:31:36.216312  5635 net.cpp:157] Top shape: 1 96 300 500 (14400000)
I1016 16:31:36.216315  5635 net.cpp:165] Memory required for data: 79200028
I1016 16:31:36.216331  5635 layer_factory.hpp:77] Creating layer relu1
I1016 16:31:36.216349  5635 net.cpp:106] Creating Layer relu1
I1016 16:31:36.216352  5635 net.cpp:454] relu1 <- conv1
I1016 16:31:36.216356  5635 net.cpp:397] relu1 -> conv1 (in-place)
I1016 16:31:36.216555  5635 net.cpp:150] Setting up relu1
I1016 16:31:36.216563  5635 net.cpp:157] Top shape: 1 96 300 500 (14400000)
I1016 16:31:36.216567  5635 net.cpp:165] Memory required for data: 136800028
I1016 16:31:36.216568  5635 layer_factory.hpp:77] Creating layer norm1
I1016 16:31:36.216576  5635 net.cpp:106] Creating Layer norm1
I1016 16:31:36.216578  5635 net.cpp:454] norm1 <- conv1
I1016 16:31:36.216596  5635 net.cpp:411] norm1 -> norm1
I1016 16:31:36.216680  5635 net.cpp:150] Setting up norm1
I1016 16:31:36.216684  5635 net.cpp:157] Top shape: 1 96 300 500 (14400000)
I1016 16:31:36.216686  5635 net.cpp:165] Memory required for data: 194400028
I1016 16:31:36.216689  5635 layer_factory.hpp:77] Creating layer pool1
I1016 16:31:36.216693  5635 net.cpp:106] Creating Layer pool1
I1016 16:31:36.216696  5635 net.cpp:454] pool1 <- norm1
I1016 16:31:36.216699  5635 net.cpp:411] pool1 -> pool1
I1016 16:31:36.216729  5635 net.cpp:150] Setting up pool1
I1016 16:31:36.216734  5635 net.cpp:157] Top shape: 1 96 151 251 (3638496)
I1016 16:31:36.216737  5635 net.cpp:165] Memory required for data: 208954012
I1016 16:31:36.216739  5635 layer_factory.hpp:77] Creating layer conv2
I1016 16:31:36.216747  5635 net.cpp:106] Creating Layer conv2
I1016 16:31:36.216750  5635 net.cpp:454] conv2 <- pool1
I1016 16:31:36.216754  5635 net.cpp:411] conv2 -> conv2
I1016 16:31:36.218170  5635 net.cpp:150] Setting up conv2
I1016 16:31:36.218180  5635 net.cpp:157] Top shape: 1 256 76 126 (2451456)
I1016 16:31:36.218183  5635 net.cpp:165] Memory required for data: 218759836
I1016 16:31:36.218190  5635 layer_factory.hpp:77] Creating layer relu2
I1016 16:31:36.218194  5635 net.cpp:106] Creating Layer relu2
I1016 16:31:36.218197  5635 net.cpp:454] relu2 <- conv2
I1016 16:31:36.218211  5635 net.cpp:397] relu2 -> conv2 (in-place)
I1016 16:31:36.218401  5635 net.cpp:150] Setting up relu2
I1016 16:31:36.218410  5635 net.cpp:157] Top shape: 1 256 76 126 (2451456)
I1016 16:31:36.218411  5635 net.cpp:165] Memory required for data: 228565660
I1016 16:31:36.218415  5635 layer_factory.hpp:77] Creating layer norm2
I1016 16:31:36.218420  5635 net.cpp:106] Creating Layer norm2
I1016 16:31:36.218422  5635 net.cpp:454] norm2 <- conv2
I1016 16:31:36.218425  5635 net.cpp:411] norm2 -> norm2
I1016 16:31:36.218509  5635 net.cpp:150] Setting up norm2
I1016 16:31:36.218514  5635 net.cpp:157] Top shape: 1 256 76 126 (2451456)
I1016 16:31:36.218516  5635 net.cpp:165] Memory required for data: 238371484
I1016 16:31:36.218519  5635 layer_factory.hpp:77] Creating layer pool2
I1016 16:31:36.218523  5635 net.cpp:106] Creating Layer pool2
I1016 16:31:36.218524  5635 net.cpp:454] pool2 <- norm2
I1016 16:31:36.218528  5635 net.cpp:411] pool2 -> pool2
I1016 16:31:36.218559  5635 net.cpp:150] Setting up pool2
I1016 16:31:36.218562  5635 net.cpp:157] Top shape: 1 256 39 64 (638976)
I1016 16:31:36.218565  5635 net.cpp:165] Memory required for data: 240927388
I1016 16:31:36.218567  5635 layer_factory.hpp:77] Creating layer conv3
I1016 16:31:36.218572  5635 net.cpp:106] Creating Layer conv3
I1016 16:31:36.218575  5635 net.cpp:454] conv3 <- pool2
I1016 16:31:36.218578  5635 net.cpp:411] conv3 -> conv3
I1016 16:31:36.220942  5635 net.cpp:150] Setting up conv3
I1016 16:31:36.220959  5635 net.cpp:157] Top shape: 1 384 39 64 (958464)
I1016 16:31:36.220963  5635 net.cpp:165] Memory required for data: 244761244
I1016 16:31:36.220971  5635 layer_factory.hpp:77] Creating layer relu3
I1016 16:31:36.220978  5635 net.cpp:106] Creating Layer relu3
I1016 16:31:36.220991  5635 net.cpp:454] relu3 <- conv3
I1016 16:31:36.220996  5635 net.cpp:397] relu3 -> conv3 (in-place)
I1016 16:31:36.221122  5635 net.cpp:150] Setting up relu3
I1016 16:31:36.221128  5635 net.cpp:157] Top shape: 1 384 39 64 (958464)
I1016 16:31:36.221130  5635 net.cpp:165] Memory required for data: 248595100
I1016 16:31:36.221133  5635 layer_factory.hpp:77] Creating layer conv4
I1016 16:31:36.221139  5635 net.cpp:106] Creating Layer conv4
I1016 16:31:36.221143  5635 net.cpp:454] conv4 <- conv3
I1016 16:31:36.221146  5635 net.cpp:411] conv4 -> conv4
I1016 16:31:36.223513  5635 net.cpp:150] Setting up conv4
I1016 16:31:36.223528  5635 net.cpp:157] Top shape: 1 384 39 64 (958464)
I1016 16:31:36.223531  5635 net.cpp:165] Memory required for data: 252428956
I1016 16:31:36.223537  5635 layer_factory.hpp:77] Creating layer relu4
I1016 16:31:36.223542  5635 net.cpp:106] Creating Layer relu4
I1016 16:31:36.223546  5635 net.cpp:454] relu4 <- conv4
I1016 16:31:36.223561  5635 net.cpp:397] relu4 -> conv4 (in-place)
I1016 16:31:36.223762  5635 net.cpp:150] Setting up relu4
I1016 16:31:36.223769  5635 net.cpp:157] Top shape: 1 384 39 64 (958464)
I1016 16:31:36.223773  5635 net.cpp:165] Memory required for data: 256262812
I1016 16:31:36.223774  5635 layer_factory.hpp:77] Creating layer conv5
I1016 16:31:36.223781  5635 net.cpp:106] Creating Layer conv5
I1016 16:31:36.223784  5635 net.cpp:454] conv5 <- conv4
I1016 16:31:36.223788  5635 net.cpp:411] conv5 -> conv5
I1016 16:31:36.225581  5635 net.cpp:150] Setting up conv5
I1016 16:31:36.225594  5635 net.cpp:157] Top shape: 1 256 39 64 (638976)
I1016 16:31:36.225596  5635 net.cpp:165] Memory required for data: 258818716
I1016 16:31:36.225605  5635 layer_factory.hpp:77] Creating layer relu5
I1016 16:31:36.225611  5635 net.cpp:106] Creating Layer relu5
I1016 16:31:36.225625  5635 net.cpp:454] relu5 <- conv5
I1016 16:31:36.225628  5635 net.cpp:397] relu5 -> conv5 (in-place)
I1016 16:31:36.225837  5635 net.cpp:150] Setting up relu5
I1016 16:31:36.225846  5635 net.cpp:157] Top shape: 1 256 39 64 (638976)
I1016 16:31:36.225847  5635 net.cpp:165] Memory required for data: 261374620
I1016 16:31:36.225850  5635 layer_factory.hpp:77] Creating layer rpn_conv1
I1016 16:31:36.225860  5635 net.cpp:106] Creating Layer rpn_conv1
I1016 16:31:36.225863  5635 net.cpp:454] rpn_conv1 <- conv5
I1016 16:31:36.225879  5635 net.cpp:411] rpn_conv1 -> rpn_conv1
I1016 16:31:36.239660  5635 net.cpp:150] Setting up rpn_conv1
I1016 16:31:36.239671  5635 net.cpp:157] Top shape: 1 256 39 64 (638976)
I1016 16:31:36.239675  5635 net.cpp:165] Memory required for data: 263930524
I1016 16:31:36.239680  5635 layer_factory.hpp:77] Creating layer rpn_relu1
I1016 16:31:36.239684  5635 net.cpp:106] Creating Layer rpn_relu1
I1016 16:31:36.239686  5635 net.cpp:454] rpn_relu1 <- rpn_conv1
I1016 16:31:36.239701  5635 net.cpp:397] rpn_relu1 -> rpn_conv1 (in-place)
I1016 16:31:36.239830  5635 net.cpp:150] Setting up rpn_relu1
I1016 16:31:36.239835  5635 net.cpp:157] Top shape: 1 256 39 64 (638976)
I1016 16:31:36.239838  5635 net.cpp:165] Memory required for data: 266486428
I1016 16:31:36.239840  5635 layer_factory.hpp:77] Creating layer rpn_conv1_rpn_relu1_0_split
I1016 16:31:36.239845  5635 net.cpp:106] Creating Layer rpn_conv1_rpn_relu1_0_split
I1016 16:31:36.239846  5635 net.cpp:454] rpn_conv1_rpn_relu1_0_split <- rpn_conv1
I1016 16:31:36.239850  5635 net.cpp:411] rpn_conv1_rpn_relu1_0_split -> rpn_conv1_rpn_relu1_0_split_0
I1016 16:31:36.239856  5635 net.cpp:411] rpn_conv1_rpn_relu1_0_split -> rpn_conv1_rpn_relu1_0_split_1
I1016 16:31:36.239893  5635 net.cpp:150] Setting up rpn_conv1_rpn_relu1_0_split
I1016 16:31:36.239898  5635 net.cpp:157] Top shape: 1 256 39 64 (638976)
I1016 16:31:36.239914  5635 net.cpp:157] Top shape: 1 256 39 64 (638976)
I1016 16:31:36.239917  5635 net.cpp:165] Memory required for data: 271598236
I1016 16:31:36.239918  5635 layer_factory.hpp:77] Creating layer rpn_cls_score
I1016 16:31:36.239928  5635 net.cpp:106] Creating Layer rpn_cls_score
I1016 16:31:36.239930  5635 net.cpp:454] rpn_cls_score <- rpn_conv1_rpn_relu1_0_split_0
I1016 16:31:36.239935  5635 net.cpp:411] rpn_cls_score -> rpn_cls_score
I1016 16:31:36.240805  5635 net.cpp:150] Setting up rpn_cls_score
I1016 16:31:36.240815  5635 net.cpp:157] Top shape: 1 18 39 64 (44928)
I1016 16:31:36.240818  5635 net.cpp:165] Memory required for data: 271777948
I1016 16:31:36.240823  5635 layer_factory.hpp:77] Creating layer rpn_cls_score_rpn_cls_score_0_split
I1016 16:31:36.240826  5635 net.cpp:106] Creating Layer rpn_cls_score_rpn_cls_score_0_split
I1016 16:31:36.240829  5635 net.cpp:454] rpn_cls_score_rpn_cls_score_0_split <- rpn_cls_score
I1016 16:31:36.240834  5635 net.cpp:411] rpn_cls_score_rpn_cls_score_0_split -> rpn_cls_score_rpn_cls_score_0_split_0
I1016 16:31:36.240849  5635 net.cpp:411] rpn_cls_score_rpn_cls_score_0_split -> rpn_cls_score_rpn_cls_score_0_split_1
I1016 16:31:36.240875  5635 net.cpp:150] Setting up rpn_cls_score_rpn_cls_score_0_split
I1016 16:31:36.240892  5635 net.cpp:157] Top shape: 1 18 39 64 (44928)
I1016 16:31:36.240895  5635 net.cpp:157] Top shape: 1 18 39 64 (44928)
I1016 16:31:36.240897  5635 net.cpp:165] Memory required for data: 272137372
I1016 16:31:36.240900  5635 layer_factory.hpp:77] Creating layer rpn_bbox_pred
I1016 16:31:36.240906  5635 net.cpp:106] Creating Layer rpn_bbox_pred
I1016 16:31:36.240909  5635 net.cpp:454] rpn_bbox_pred <- rpn_conv1_rpn_relu1_0_split_1
I1016 16:31:36.240913  5635 net.cpp:411] rpn_bbox_pred -> rpn_bbox_pred
I1016 16:31:36.241794  5635 net.cpp:150] Setting up rpn_bbox_pred
I1016 16:31:36.241803  5635 net.cpp:157] Top shape: 1 36 39 64 (89856)
I1016 16:31:36.241806  5635 net.cpp:165] Memory required for data: 272496796
I1016 16:31:36.241811  5635 layer_factory.hpp:77] Creating layer rpn_cls_score_reshape
I1016 16:31:36.241818  5635 net.cpp:106] Creating Layer rpn_cls_score_reshape
I1016 16:31:36.241822  5635 net.cpp:454] rpn_cls_score_reshape <- rpn_cls_score_rpn_cls_score_0_split_0
I1016 16:31:36.241837  5635 net.cpp:411] rpn_cls_score_reshape -> rpn_cls_score_reshape
I1016 16:31:36.241858  5635 net.cpp:150] Setting up rpn_cls_score_reshape
I1016 16:31:36.241876  5635 net.cpp:157] Top shape: 1 2 351 64 (44928)
I1016 16:31:36.241878  5635 net.cpp:165] Memory required for data: 272676508
I1016 16:31:36.241880  5635 layer_factory.hpp:77] Creating layer rpn-data
I1016 16:31:36.242293  5635 net.cpp:106] Creating Layer rpn-data
I1016 16:31:36.242302  5635 net.cpp:454] rpn-data <- rpn_cls_score_rpn_cls_score_0_split_1
I1016 16:31:36.242306  5635 net.cpp:454] rpn-data <- gt_boxes
I1016 16:31:36.242310  5635 net.cpp:454] rpn-data <- im_info
I1016 16:31:36.242312  5635 net.cpp:454] rpn-data <- data_input-data_0_split_1
I1016 16:31:36.242316  5635 net.cpp:411] rpn-data -> rpn_labels
I1016 16:31:36.242331  5635 net.cpp:411] rpn-data -> rpn_bbox_targets
I1016 16:31:36.242336  5635 net.cpp:411] rpn-data -> rpn_bbox_inside_weights
I1016 16:31:36.242341  5635 net.cpp:411] rpn-data -> rpn_bbox_outside_weights
I1016 16:31:36.243141  5635 net.cpp:150] Setting up rpn-data
I1016 16:31:36.243152  5635 net.cpp:157] Top shape: 1 1 351 64 (22464)
I1016 16:31:36.243155  5635 net.cpp:157] Top shape: 1 36 39 64 (89856)
I1016 16:31:36.243158  5635 net.cpp:157] Top shape: 1 36 39 64 (89856)
I1016 16:31:36.243161  5635 net.cpp:157] Top shape: 1 36 39 64 (89856)
I1016 16:31:36.243163  5635 net.cpp:165] Memory required for data: 273844636
I1016 16:31:36.243165  5635 layer_factory.hpp:77] Creating layer rpn_loss_cls
I1016 16:31:36.243183  5635 net.cpp:106] Creating Layer rpn_loss_cls
I1016 16:31:36.243187  5635 net.cpp:454] rpn_loss_cls <- rpn_cls_score_reshape
I1016 16:31:36.243191  5635 net.cpp:454] rpn_loss_cls <- rpn_labels
I1016 16:31:36.243194  5635 net.cpp:411] rpn_loss_cls -> rpn_cls_loss
…
