…
weight_decay: 0.0005
stepsize: 60000
snapshot: 0
snapshot_prefix: "zf_rpn"
average_loss: 100
I1017 17:11:29.801924 20480 solver.cpp:81] Creating training net from train_net file: models/pascal_voc/ZF/faster_rcnn_alt_opt/stage1_rpn_train.pt
I1017 17:11:29.802666 20480 net.cpp:49] Initializing net from parameters: 
name: "ZF"
state {
  phase: TRAIN
}
layer {
  name: "input-data"
  type: "Python"
  top: "data"
  top: "im_info"
  top: "gt_boxes"
  python_param {
    module: "roi_data_layer.layer"
    layer: "RoIDataLayer"
    param_str: "\'num_classes\': 2"
  }
}
layer {
  name: "conv1"
  type: "Convolution"
  bottom: "data"
  top: "conv1"
  param {
    lr_mult: 1
  }
  param {
    lr_mult: 2
  }
  convolution_param {
    num_output: 96
    pad: 3
    kernel_size: 7
    stride: 2
  }
}
layer {
  name: "relu1"
  type: "ReLU"
  bottom: "conv1"
  top: "conv1"
}
layer {
  name: "norm1"
  type: "LRN"
  bottom: "conv1"
  top: "norm1"
  lrn_param {
    local_size: 3
    alpha: 5e-05
    beta: 0.75
    norm_region: WITHIN_CHANNEL
    engine: CAFFE
  }
}
layer {
  name: "pool1"
  type: "Pooling"
  bottom: "norm1"
  top: "pool1"
  pooling_param {
    pool: MAX
    kernel_size: 3
    stride: 2
    pad: 1
  }
}
layer {
  name: "conv2"
  type: "Convolution"
  bottom: "pool1"
  top: "conv2"
  param {
    lr_mult: 1
  }
  param {
    lr_mult: 2
  }
  convolution_param {
    num_output: 256
    pad: 2
    kernel_size: 5
    stride: 2
  }
}
layer {
  name: "relu2"
  type: "ReLU"
  bottom: "conv2"
  top: "conv2"
}
layer {
  name: "norm2"
  type: "LRN"
  bottom: "conv2"
  top: "norm2"
  lrn_param {
    local_size: 3
    alpha: 5e-05
    beta: 0.75
    norm_region: WITHIN_CHANNEL
    engine: CAFFE
  }
}
layer {
  name: "pool2"
  type: "Pooling"
  bottom: "norm2"
  top: "pool2"
  pooling_param {
    pool: MAX
    kernel_size: 3
    stride: 2
    pad: 1
  }
}
layer {
  name: "conv3"
  type: "Convolution"
  bottom: "pool2"
  top: "conv3"
  param {
    lr_mult: 1
  }
  param {
    lr_mult: 2
  }
  convolution_param {
    num_output: 384
    pad: 1
    kernel_size: 3
    stride: 1
  }
}
layer {
  name: "relu3"
  type: "ReLU"
  bottom: "conv3"
  top: "conv3"
}
layer {
  name: "conv4"
  type: "Convolution"
  bottom: "conv3"
  top: "conv4"
  param {
    lr_mult: 1
  }
  param {
    lr_mult: 2
  }
  convolution_param {
    num_output: 384
    pad: 1
    kernel_size: 3
    stride: 1
  }
}
layer {
  name: "relu4"
  type: "ReLU"
  bottom: "conv4"
  top: "conv4"
}
layer {
  name: "conv5"
  type: "Convolution"
  bottom: "conv4"
  top: "conv5"
  param {
    lr_mult: 1
  }
  param {
    lr_mult: 2
  }
  convolution_param {
    num_output: 256
    pad: 1
    kernel_size: 3
    stride: 1
  }
}
layer {
  name: "relu5"
  type: "ReLU"
  bottom: "conv5"
  top: "conv5"
}
layer {
  name: "rpn_conv1"
  type: "Convolution"
  bottom: "conv5"
  top: "rpn_conv1"
  param {
    lr_mult: 1
  }
  param {
    lr_mult: 2
  }
  convolution_param {
    num_output: 256
    pad: 1
    kernel_size: 3
    stride: 1
    weight_filler {
      type: "gaussian"
      std: 0.01
    }
    bias_filler {
      type: "constant"
      value: 0
    }
  }
}
layer {
  name: "rpn_relu1"
  type: "ReLU"
  bottom: "rpn_conv1"
  top: "rpn_conv1"
}
layer {
  name: "rpn_cls_score"
  type: "Convolution"
  bottom: "rpn_conv1"
  top: "rpn_cls_score"
  param {
    lr_mult: 1
  }
  param {
    lr_mult: 2
  }
  convolution_param {
    num_output: 18
    pad: 0
    kernel_size: 1
    stride: 1
    weight_filler {
      type: "gaussian"
      std: 0.01
    }
    bias_filler {
      type: "constant"
      value: 0
    }
  }
}
layer {
  name: "rpn_bbox_pred"
  type: "Convolution"
  bottom: "rpn_conv1"
  top: "rpn_bbox_pred"
  param {
    lr_mult: 1
  }
  param {
    lr_mult: 2
  }
  convolution_param {
    num_output: 36
    pad: 0
    kernel_size: 1
    stride: 1
    weight_filler {
      type: "gaussian"
      std: 0.01
    }
    bias_filler {
      type: "constant"
      value: 0
    }
  }
}
layer {
  name: "rpn_cls_score_reshape"
  type: "Reshape"
  bottom: "rpn_cls_score"
  top: "rpn_cls_score_reshape"
  reshape_param {
    shape {
      dim: 0
      dim: 2
      dim: -1
      dim: 0
    }
  }
}
layer {
  name: "rpn-data"
  type: "Python"
  bottom: "rpn_cls_score"
  bottom: "gt_boxes"
  bottom: "im_info"
  bottom: "data"
  top: "rpn_labels"
  top: "rpn_bbox_targets"
  top: "rpn_bbox_inside_weights"
  top: "rpn_bbox_outside_weights"
  python_param {
    module: "rpn.anchor_target_layer"
    layer: "AnchorTargetLayer"
    param_str: "\'feat_stride\': 16"
  }
}
layer {
  name: "rpn_loss_cls"
  type: "SoftmaxWithLoss"
  bottom: "rpn_cls_score_reshape"
  bottom: "rpn_labels"
  top: "rpn_cls_loss"
  loss_weight: 1
  propagate_down: true
  propagate_down: false
  loss_param {
    ignore_label: -1
    normalize: true
  }
}
layer {
  name: "rpn_loss_bbox"
  type: "SmoothL1Loss"
  bottom: "rpn_bbox_pred"
  bottom: "rpn_bbox_targets"
  bottom: "rpn_bbox_inside_weights"
  bottom: "rpn_bbox_outside_weights"
  top: "rpn_loss_bbox"
  loss_weight: 1
  smooth_l1_loss_param {
    sigma: 3
  }
}
layer {
  name: "dummy_roi_pool_conv5"
  type: "DummyData"
  top: "dummy_roi_pool_conv5"
  dummy_data_param {
    data_filler {
      type: "gaussian"
      std: 0.01
    }
    shape {
      dim: 1
      dim: 9216
    }
  }
}
layer {
  name: "fc6"
  type: "InnerProduct"
  bottom: "dummy_roi_pool_conv5"
  top: "fc6"
  param {
    lr_mult: 0
    decay_mult: 0
  }
  param {
    lr_mult: 0
    decay_mult: 0
  }
  inner_product_param {
    num_output: 4096
  }
}
layer {
  name: "relu6"
  type: "ReLU"
  bottom: "fc6"
  top: "fc6"
}
layer {
  name: "fc7"
  type: "InnerProduct"
  bottom: "fc6"
  top: "fc7"
  param {
    lr_mult: 0
    decay_mult: 0
  }
  param {
    lr_mult: 0
    decay_mult: 0
  }
  inner_product_param {
    num_output: 4096
  }
}
layer {
  name: "silence_fc7"
  type: "Silence"
  bottom: "fc7"
}
I1017 17:11:29.802841 20480 layer_factory.hpp:77] Creating layer input-data
I1017 17:11:29.803316 20480 net.cpp:106] Creating Layer input-data
I1017 17:11:29.803328 20480 net.cpp:411] input-data -> data
I1017 17:11:29.803354 20480 net.cpp:411] input-data -> im_info
I1017 17:11:29.803364 20480 net.cpp:411] input-data -> gt_boxes
RoiDataLayer: name_to_top: {'gt_boxes': 2, 'data': 0, 'im_info': 1}
I1017 17:11:29.829133 20480 net.cpp:150] Setting up input-data
I1017 17:11:29.829160 20480 net.cpp:157] Top shape: 1 3 600 1000 (1800000)
I1017 17:11:29.829174 20480 net.cpp:157] Top shape: 1 3 (3)
I1017 17:11:29.829177 20480 net.cpp:157] Top shape: 1 4 (4)
I1017 17:11:29.829180 20480 net.cpp:165] Memory required for data: 7200028
I1017 17:11:29.829185 20480 layer_factory.hpp:77] Creating layer data_input-data_0_split
I1017 17:11:29.829193 20480 net.cpp:106] Creating Layer data_input-data_0_split
I1017 17:11:29.829200 20480 net.cpp:454] data_input-data_0_split <- data
I1017 17:11:29.829208 20480 net.cpp:411] data_input-data_0_split -> data_input-data_0_split_0
I1017 17:11:29.829229 20480 net.cpp:411] data_input-data_0_split -> data_input-data_0_split_1
I1017 17:11:29.829275 20480 net.cpp:150] Setting up data_input-data_0_split
I1017 17:11:29.829290 20480 net.cpp:157] Top shape: 1 3 600 1000 (1800000)
I1017 17:11:29.829293 20480 net.cpp:157] Top shape: 1 3 600 1000 (1800000)
I1017 17:11:29.829295 20480 net.cpp:165] Memory required for data: 21600028
I1017 17:11:29.829308 20480 layer_factory.hpp:77] Creating layer conv1
I1017 17:11:29.829329 20480 net.cpp:106] Creating Layer conv1
I1017 17:11:29.829331 20480 net.cpp:454] conv1 <- data_input-data_0_split_0
I1017 17:11:29.829335 20480 net.cpp:411] conv1 -> conv1
I1017 17:11:30.032454 20480 net.cpp:150] Setting up conv1
I1017 17:11:30.032479 20480 net.cpp:157] Top shape: 1 96 300 500 (14400000)
I1017 17:11:30.032483 20480 net.cpp:165] Memory required for data: 79200028
I1017 17:11:30.032502 20480 layer_factory.hpp:77] Creating layer relu1
I1017 17:11:30.032526 20480 net.cpp:106] Creating Layer relu1
I1017 17:11:30.032539 20480 net.cpp:454] relu1 <- conv1
I1017 17:11:30.032544 20480 net.cpp:397] relu1 -> conv1 (in-place)
I1017 17:11:30.032788 20480 net.cpp:150] Setting up relu1
I1017 17:11:30.032796 20480 net.cpp:157] Top shape: 1 96 300 500 (14400000)
I1017 17:11:30.032809 20480 net.cpp:165] Memory required for data: 136800028
I1017 17:11:30.032812 20480 layer_factory.hpp:77] Creating layer norm1
I1017 17:11:30.032819 20480 net.cpp:106] Creating Layer norm1
I1017 17:11:30.032822 20480 net.cpp:454] norm1 <- conv1
I1017 17:11:30.032826 20480 net.cpp:411] norm1 -> norm1
I1017 17:11:30.032940 20480 net.cpp:150] Setting up norm1
I1017 17:11:30.032945 20480 net.cpp:157] Top shape: 1 96 300 500 (14400000)
I1017 17:11:30.032958 20480 net.cpp:165] Memory required for data: 194400028
I1017 17:11:30.032959 20480 layer_factory.hpp:77] Creating layer pool1
I1017 17:11:30.032963 20480 net.cpp:106] Creating Layer pool1
I1017 17:11:30.032976 20480 net.cpp:454] pool1 <- norm1
I1017 17:11:30.032979 20480 net.cpp:411] pool1 -> pool1
I1017 17:11:30.033010 20480 net.cpp:150] Setting up pool1
I1017 17:11:30.033015 20480 net.cpp:157] Top shape: 1 96 151 251 (3638496)
I1017 17:11:30.033017 20480 net.cpp:165] Memory required for data: 208954012
I1017 17:11:30.033020 20480 layer_factory.hpp:77] Creating layer conv2
I1017 17:11:30.033026 20480 net.cpp:106] Creating Layer conv2
I1017 17:11:30.033030 20480 net.cpp:454] conv2 <- pool1
I1017 17:11:30.033032 20480 net.cpp:411] conv2 -> conv2
I1017 17:11:30.034870 20480 net.cpp:150] Setting up conv2
I1017 17:11:30.034891 20480 net.cpp:157] Top shape: 1 256 76 126 (2451456)
I1017 17:11:30.034894 20480 net.cpp:165] Memory required for data: 218759836
I1017 17:11:30.034903 20480 layer_factory.hpp:77] Creating layer relu2
I1017 17:11:30.034906 20480 net.cpp:106] Creating Layer relu2
I1017 17:11:30.034910 20480 net.cpp:454] relu2 <- conv2
I1017 17:11:30.034924 20480 net.cpp:397] relu2 -> conv2 (in-place)
I1017 17:11:30.035881 20480 net.cpp:150] Setting up relu2
I1017 17:11:30.035888 20480 net.cpp:157] Top shape: 1 256 76 126 (2451456)
I1017 17:11:30.035902 20480 net.cpp:165] Memory required for data: 228565660
I1017 17:11:30.035903 20480 layer_factory.hpp:77] Creating layer norm2
I1017 17:11:30.035910 20480 net.cpp:106] Creating Layer norm2
I1017 17:11:30.035912 20480 net.cpp:454] norm2 <- conv2
I1017 17:11:30.035917 20480 net.cpp:411] norm2 -> norm2
I1017 17:11:30.036041 20480 net.cpp:150] Setting up norm2
I1017 17:11:30.036049 20480 net.cpp:157] Top shape: 1 256 76 126 (2451456)
I1017 17:11:30.036053 20480 net.cpp:165] Memory required for data: 238371484
I1017 17:11:30.036057 20480 layer_factory.hpp:77] Creating layer pool2
I1017 17:11:30.036065 20480 net.cpp:106] Creating Layer pool2
I1017 17:11:30.036080 20480 net.cpp:454] pool2 <- norm2
I1017 17:11:30.036087 20480 net.cpp:411] pool2 -> pool2
I1017 17:11:30.036118 20480 net.cpp:150] Setting up pool2
I1017 17:11:30.036134 20480 net.cpp:157] Top shape: 1 256 39 64 (638976)
I1017 17:11:30.036136 20480 net.cpp:165] Memory required for data: 240927388
I1017 17:11:30.036140 20480 layer_factory.hpp:77] Creating layer conv3
I1017 17:11:30.036164 20480 net.cpp:106] Creating Layer conv3
I1017 17:11:30.036166 20480 net.cpp:454] conv3 <- pool2
I1017 17:11:30.036171 20480 net.cpp:411] conv3 -> conv3
I1017 17:11:30.040263 20480 net.cpp:150] Setting up conv3
I1017 17:11:30.040297 20480 net.cpp:157] Top shape: 1 384 39 64 (958464)
I1017 17:11:30.040300 20480 net.cpp:165] Memory required for data: 244761244
I1017 17:11:30.040312 20480 layer_factory.hpp:77] Creating layer relu3
I1017 17:11:30.040319 20480 net.cpp:106] Creating Layer relu3
I1017 17:11:30.040323 20480 net.cpp:454] relu3 <- conv3
I1017 17:11:30.040328 20480 net.cpp:397] relu3 -> conv3 (in-place)
I1017 17:11:30.041090 20480 net.cpp:150] Setting up relu3
I1017 17:11:30.041110 20480 net.cpp:157] Top shape: 1 384 39 64 (958464)
I1017 17:11:30.041111 20480 net.cpp:165] Memory required for data: 248595100
I1017 17:11:30.041113 20480 layer_factory.hpp:77] Creating layer conv4
I1017 17:11:30.041121 20480 net.cpp:106] Creating Layer conv4
I1017 17:11:30.041123 20480 net.cpp:454] conv4 <- conv3
I1017 17:11:30.041128 20480 net.cpp:411] conv4 -> conv4
I1017 17:11:30.046356 20480 net.cpp:150] Setting up conv4
I1017 17:11:30.046391 20480 net.cpp:157] Top shape: 1 384 39 64 (958464)
I1017 17:11:30.046394 20480 net.cpp:165] Memory required for data: 252428956
I1017 17:11:30.046402 20480 layer_factory.hpp:77] Creating layer relu4
I1017 17:11:30.046411 20480 net.cpp:106] Creating Layer relu4
I1017 17:11:30.046416 20480 net.cpp:454] relu4 <- conv4
I1017 17:11:30.046422 20480 net.cpp:397] relu4 -> conv4 (in-place)
I1017 17:11:30.047421 20480 net.cpp:150] Setting up relu4
I1017 17:11:30.047430 20480 net.cpp:157] Top shape: 1 384 39 64 (958464)
I1017 17:11:30.047442 20480 net.cpp:165] Memory required for data: 256262812
I1017 17:11:30.047444 20480 layer_factory.hpp:77] Creating layer conv5
I1017 17:11:30.047454 20480 net.cpp:106] Creating Layer conv5
I1017 17:11:30.047457 20480 net.cpp:454] conv5 <- conv4
I1017 17:11:30.047461 20480 net.cpp:411] conv5 -> conv5
I1017 17:11:30.056038 20480 net.cpp:150] Setting up conv5
I1017 17:11:30.056059 20480 net.cpp:157] Top shape: 1 256 39 64 (638976)
I1017 17:11:30.056062 20480 net.cpp:165] Memory required for data: 258818716
I1017 17:11:30.056072 20480 layer_factory.hpp:77] Creating layer relu5
I1017 17:11:30.056077 20480 net.cpp:106] Creating Layer relu5
I1017 17:11:30.056082 20480 net.cpp:454] relu5 <- conv5
I1017 17:11:30.056095 20480 net.cpp:397] relu5 -> conv5 (in-place)
I1017 17:11:30.059237 20480 net.cpp:150] Setting up relu5
I1017 17:11:30.059247 20480 net.cpp:157] Top shape: 1 256 39 64 (638976)
I1017 17:11:30.059258 20480 net.cpp:165] Memory required for data: 261374620
I1017 17:11:30.059262 20480 layer_factory.hpp:77] Creating layer rpn_conv1
I1017 17:11:30.059272 20480 net.cpp:106] Creating Layer rpn_conv1
I1017 17:11:30.059275 20480 net.cpp:454] rpn_conv1 <- conv5
I1017 17:11:30.059291 20480 net.cpp:411] rpn_conv1 -> rpn_conv1
I1017 17:11:30.078464 20480 net.cpp:150] Setting up rpn_conv1
I1017 17:11:30.078485 20480 net.cpp:157] Top shape: 1 256 39 64 (638976)
I1017 17:11:30.078488 20480 net.cpp:165] Memory required for data: 263930524
I1017 17:11:30.078492 20480 layer_factory.hpp:77] Creating layer rpn_relu1
I1017 17:11:30.078497 20480 net.cpp:106] Creating Layer rpn_relu1
I1017 17:11:30.078500 20480 net.cpp:454] rpn_relu1 <- rpn_conv1
I1017 17:11:30.078505 20480 net.cpp:397] rpn_relu1 -> rpn_conv1 (in-place)
I1017 17:11:30.081635 20480 net.cpp:150] Setting up rpn_relu1
I1017 17:11:30.081642 20480 net.cpp:157] Top shape: 1 256 39 64 (638976)
I1017 17:11:30.081655 20480 net.cpp:165] Memory required for data: 266486428
I1017 17:11:30.081657 20480 layer_factory.hpp:77] Creating layer rpn_conv1_rpn_relu1_0_split
I1017 17:11:30.081662 20480 net.cpp:106] Creating Layer rpn_conv1_rpn_relu1_0_split
I1017 17:11:30.081665 20480 net.cpp:454] rpn_conv1_rpn_relu1_0_split <- rpn_conv1
I1017 17:11:30.081668 20480 net.cpp:411] rpn_conv1_rpn_relu1_0_split -> rpn_conv1_rpn_relu1_0_split_0
I1017 17:11:30.081686 20480 net.cpp:411] rpn_conv1_rpn_relu1_0_split -> rpn_conv1_rpn_relu1_0_split_1
I1017 17:11:30.081723 20480 net.cpp:150] Setting up rpn_conv1_rpn_relu1_0_split
I1017 17:11:30.081728 20480 net.cpp:157] Top shape: 1 256 39 64 (638976)
I1017 17:11:30.081734 20480 net.cpp:157] Top shape: 1 256 39 64 (638976)
I1017 17:11:30.081737 20480 net.cpp:165] Memory required for data: 271598236
I1017 17:11:30.081739 20480 layer_factory.hpp:77] Creating layer rpn_cls_score
I1017 17:11:30.081758 20480 net.cpp:106] Creating Layer rpn_cls_score
I1017 17:11:30.081760 20480 net.cpp:454] rpn_cls_score <- rpn_conv1_rpn_relu1_0_split_0
I1017 17:11:30.081764 20480 net.cpp:411] rpn_cls_score -> rpn_cls_score
I1017 17:11:30.085737 20480 net.cpp:150] Setting up rpn_cls_score
I1017 17:11:30.085747 20480 net.cpp:157] Top shape: 1 18 39 64 (44928)
I1017 17:11:30.085758 20480 net.cpp:165] Memory required for data: 271777948
I1017 17:11:30.085763 20480 layer_factory.hpp:77] Creating layer rpn_cls_score_rpn_cls_score_0_split
I1017 17:11:30.085767 20480 net.cpp:106] Creating Layer rpn_cls_score_rpn_cls_score_0_split
I1017 17:11:30.085770 20480 net.cpp:454] rpn_cls_score_rpn_cls_score_0_split <- rpn_cls_score
I1017 17:11:30.085775 20480 net.cpp:411] rpn_cls_score_rpn_cls_score_0_split -> rpn_cls_score_rpn_cls_score_0_split_0
I1017 17:11:30.085793 20480 net.cpp:411] rpn_cls_score_rpn_cls_score_0_split -> rpn_cls_score_rpn_cls_score_0_split_1
I1017 17:11:30.085836 20480 net.cpp:150] Setting up rpn_cls_score_rpn_cls_score_0_split
I1017 17:11:30.085855 20480 net.cpp:157] Top shape: 1 18 39 64 (44928)
I1017 17:11:30.085870 20480 net.cpp:157] Top shape: 1 18 39 64 (44928)
I1017 17:11:30.085872 20480 net.cpp:165] Memory required for data: 272137372
I1017 17:11:30.085876 20480 layer_factory.hpp:77] Creating layer rpn_bbox_pred
I1017 17:11:30.085898 20480 net.cpp:106] Creating Layer rpn_bbox_pred
I1017 17:11:30.085914 20480 net.cpp:454] rpn_bbox_pred <- rpn_conv1_rpn_relu1_0_split_1
I1017 17:11:30.085922 20480 net.cpp:411] rpn_bbox_pred -> rpn_bbox_pred
I1017 17:11:30.089345 20480 net.cpp:150] Setting up rpn_bbox_pred
I1017 17:11:30.089355 20480 net.cpp:157] Top shape: 1 36 39 64 (89856)
I1017 17:11:30.089360 20480 net.cpp:165] Memory required for data: 272496796
I1017 17:11:30.089367 20480 layer_factory.hpp:77] Creating layer rpn_cls_score_reshape
I1017 17:11:30.089390 20480 net.cpp:106] Creating Layer rpn_cls_score_reshape
I1017 17:11:30.089403 20480 net.cpp:454] rpn_cls_score_reshape <- rpn_cls_score_rpn_cls_score_0_split_0
I1017 17:11:30.089408 20480 net.cpp:411] rpn_cls_score_reshape -> rpn_cls_score_reshape
I1017 17:11:30.089432 20480 net.cpp:150] Setting up rpn_cls_score_reshape
I1017 17:11:30.089447 20480 net.cpp:157] Top shape: 1 2 351 64 (44928)
I1017 17:11:30.089449 20480 net.cpp:165] Memory required for data: 272676508
I1017 17:11:30.089452 20480 layer_factory.hpp:77] Creating layer rpn-data
I1017 17:11:30.089918 20480 net.cpp:106] Creating Layer rpn-data
I1017 17:11:30.089926 20480 net.cpp:454] rpn-data <- rpn_cls_score_rpn_cls_score_0_split_1
I1017 17:11:30.089931 20480 net.cpp:454] rpn-data <- gt_boxes
I1017 17:11:30.089933 20480 net.cpp:454] rpn-data <- im_info
I1017 17:11:30.089936 20480 net.cpp:454] rpn-data <- data_input-data_0_split_1
I1017 17:11:30.089942 20480 net.cpp:411] rpn-data -> rpn_labels
I1017 17:11:30.089958 20480 net.cpp:411] rpn-data -> rpn_bbox_targets
I1017 17:11:30.089962 20480 net.cpp:411] rpn-data -> rpn_bbox_inside_weights
I1017 17:11:30.089967 20480 net.cpp:411] rpn-data -> rpn_bbox_outside_weights
I1017 17:11:30.090759 20480 net.cpp:150] Setting up rpn-data
I1017 17:11:30.090768 20480 net.cpp:157] Top shape: 1 1 351 64 (22464)
I1017 17:11:30.090782 20480 net.cpp:157] Top shape: 1 36 39 64 (89856)
I1017 17:11:30.090785 20480 net.cpp:157] Top shape: 1 36 39 64 (89856)
I1017 17:11:30.090788 20480 net.cpp:157] Top shape: 1 36 39 64 (89856)
I1017 17:11:30.090790 20480 net.cpp:165] Memory required for data: 273844636
I1017 17:11:30.090792 20480 layer_factory.hpp:77] Creating layer rpn_loss_cls
I1017 17:11:30.090801 20480 net.cpp:106] Creating Layer rpn_loss_cls
I1017 17:11:30.090804 20480 net.cpp:454] rpn_loss_cls <- rpn_cls_score_reshape
I1017 17:11:30.090808 20480 net.cpp:454] rpn_loss_cls <- rpn_labels
I1017 17:11:30.090812 20480 net.cpp:411] rpn_loss_cls -> rpn_cls_loss
…
           'RPN_PRE_NMS_TOP_N': 12000,
           'SCALES': [600],
           'SNAPSHOT_INFIX': 'stage1',
           'SNAPSHOT_ITERS': 10000,
           'USE_FLIPPED': True,
           'USE_PREFETCH': False},
 'USE_GPU_NMS': True}
Loaded dataset `voc_2012_train` for proposal generation
WARNING: Logging before InitGoogleLogging() is written to STDERR
I1017 17:11:49.083292 20492 net.cpp:49] Initializing net from parameters: 
name: "ZF"
input: "data"
input: "im_info"
state {
  phase: TEST
}
input_shape {
  dim: 1
  dim: 3
  dim: 224
  dim: 224
}
input_shape {
  dim: 1
  dim: 3
}
layer {
  name: "conv1"
  type: "Convolution"
  bottom: "data"
  top: "conv1"
  convolution_param {
    num_output: 96
    pad: 3
    kernel_size: 7
    stride: 2
  }
}
layer {
  name: "relu1"
  type: "ReLU"
  bottom: "conv1"
  top: "conv1"
}
layer {
  name: "norm1"
  type: "LRN"
  bottom: "conv1"
  top: "norm1"
  lrn_param {
    local_size: 3
    alpha: 5e-05
    beta: 0.75
    norm_region: WITHIN_CHANNEL
    engine: CAFFE
  }
}
layer {
  name: "pool1"
  type: "Pooling"
  bottom: "norm1"
  top: "pool1"
  pooling_param {
    pool: MAX
    kernel_size: 3
    stride: 2
    pad: 1
  }
}
layer {
  name: "conv2"
  type: "Convolution"
  bottom: "pool1"
  top: "conv2"
  convolution_param {
    num_output: 256
    pad: 2
    kernel_size: 5
    stride: 2
  }
}
layer {
  name: "relu2"
  type: "ReLU"
  bottom: "conv2"
  top: "conv2"
}
layer {
  name: "norm2"
  type: "LRN"
  bottom: "conv2"
  top: "norm2"
  lrn_param {
    local_size: 3
    alpha: 5e-05
    beta: 0.75
    norm_region: WITHIN_CHANNEL
    engine: CAFFE
  }
}
layer {
  name: "pool2"
  type: "Pooling"
  bottom: "norm2"
  top: "pool2"
  pooling_param {
    pool: MAX
    kernel_size: 3
    stride: 2
    pad: 1
  }
}
layer {
  name: "conv3"
  type: "Convolution"
  bottom: "pool2"
  top: "conv3"
  convolution_param {
    num_output: 384
    pad: 1
    kernel_size: 3
    stride: 1
  }
}
layer {
  name: "relu3"
  type: "ReLU"
  bottom: "conv3"
  top: "conv3"
}
layer {
  name: "conv4"
  type: "Convolution"
  bottom: "conv3"
  top: "conv4"
  convolution_param {
    num_output: 384
    pad: 1
    kernel_size: 3
    stride: 1
  }
}
layer {
  name: "relu4"
  type: "ReLU"
  bottom: "conv4"
  top: "conv4"
}
layer {
  name: "conv5"
  type: "Convolution"
  bottom: "conv4"
  top: "conv5"
  convolution_param {
    num_output: 256
    pad: 1
    kernel_size: 3
    stride: 1
  }
}
layer {
  name: "relu5"
  type: "ReLU"
  bottom: "conv5"
  top: "conv5"
}
layer {
  name: "rpn_conv1"
  type: "Convolution"
  bottom: "conv5"
  top: "rpn_conv1"
  convolution_param {
    num_output: 256
    pad: 1
    kernel_size: 3
    stride: 1
  }
}
layer {
  name: "rpn_relu1"
  type: "ReLU"
  bottom: "rpn_conv1"
  top: "rpn_conv1"
}
layer {
  name: "rpn_cls_score"
  type: "Convolution"
  bottom: "rpn_conv1"
  top: "rpn_cls_score"
  convolution_param {
    num_output: 18
    pad: 0
    kernel_size: 1
    stride: 1
  }
}
layer {
  name: "rpn_bbox_pred"
  type: "Convolution"
  bottom: "rpn_conv1"
  top: "rpn_bbox_pred"
  convolution_param {
    num_output: 36
    pad: 0
    kernel_size: 1
    stride: 1
  }
}
layer {
  name: "rpn_cls_score_reshape"
  type: "Reshape"
  bottom: "rpn_cls_score"
  top: "rpn_cls_score_reshape"
  reshape_param {
    shape {
      dim: 0
      dim: 2
      dim: -1
      dim: 0
    }
  }
}
layer {
  name: "rpn_cls_prob"
  type: "Softmax"
  bottom: "rpn_cls_score_reshape"
  top: "rpn_cls_prob"
}
layer {
  name: "rpn_cls_prob_reshape"
  type: "Reshape"
  bottom: "rpn_cls_prob"
  top: "rpn_cls_prob_reshape"
  reshape_param {
    shape {
      dim: 0
      dim: 18
      dim: -1
      dim: 0
    }
  }
}
layer {
  name: "proposal"
  type: "Python"
  bottom: "rpn_cls_prob_reshape"
  bottom: "rpn_bbox_pred"
  bottom: "im_info"
  top: "rois"
  top: "scores"
  python_param {
    module: "rpn.proposal_layer"
    layer: "ProposalLayer"
    param_str: "\'feat_stride\': 16"
  }
}
I1017 17:11:49.083402 20492 net.cpp:413] Input 0 -> data
I1017 17:11:49.126164 20492 net.cpp:413] Input 1 -> im_info
I1017 17:11:49.126225 20492 layer_factory.hpp:77] Creating layer conv1
I1017 17:11:49.126243 20492 net.cpp:106] Creating Layer conv1
I1017 17:11:49.126248 20492 net.cpp:454] conv1 <- data
I1017 17:11:49.126255 20492 net.cpp:411] conv1 -> conv1
I1017 17:11:49.322626 20492 net.cpp:150] Setting up conv1
I1017 17:11:49.322661 20492 net.cpp:157] Top shape: 1 96 112 112 (1204224)
I1017 17:11:49.322664 20492 net.cpp:165] Memory required for data: 4816896
I1017 17:11:49.322680 20492 layer_factory.hpp:77] Creating layer relu1
I1017 17:11:49.322690 20492 net.cpp:106] Creating Layer relu1
I1017 17:11:49.322695 20492 net.cpp:454] relu1 <- conv1
I1017 17:11:49.322700 20492 net.cpp:397] relu1 -> conv1 (in-place)
I1017 17:11:49.322929 20492 net.cpp:150] Setting up relu1
I1017 17:11:49.322938 20492 net.cpp:157] Top shape: 1 96 112 112 (1204224)
I1017 17:11:49.322952 20492 net.cpp:165] Memory required for data: 9633792
I1017 17:11:49.322953 20492 layer_factory.hpp:77] Creating layer norm1
I1017 17:11:49.322962 20492 net.cpp:106] Creating Layer norm1
I1017 17:11:49.322963 20492 net.cpp:454] norm1 <- conv1
I1017 17:11:49.322978 20492 net.cpp:411] norm1 -> norm1
I1017 17:11:49.323093 20492 net.cpp:150] Setting up norm1
I1017 17:11:49.323099 20492 net.cpp:157] Top shape: 1 96 112 112 (1204224)
I1017 17:11:49.323112 20492 net.cpp:165] Memory required for data: 14450688
I1017 17:11:49.323113 20492 layer_factory.hpp:77] Creating layer pool1
I1017 17:11:49.323119 20492 net.cpp:106] Creating Layer pool1
I1017 17:11:49.323122 20492 net.cpp:454] pool1 <- norm1
I1017 17:11:49.323125 20492 net.cpp:411] pool1 -> pool1
I1017 17:11:49.323158 20492 net.cpp:150] Setting up pool1
I1017 17:11:49.323163 20492 net.cpp:157] Top shape: 1 96 57 57 (311904)
I1017 17:11:49.323165 20492 net.cpp:165] Memory required for data: 15698304
I1017 17:11:49.323168 20492 layer_factory.hpp:77] Creating layer conv2
I1017 17:11:49.323173 20492 net.cpp:106] Creating Layer conv2
I1017 17:11:49.323176 20492 net.cpp:454] conv2 <- pool1
I1017 17:11:49.323179 20492 net.cpp:411] conv2 -> conv2
I1017 17:11:49.324944 20492 net.cpp:150] Setting up conv2
I1017 17:11:49.324967 20492 net.cpp:157] Top shape: 1 256 29 29 (215296)
I1017 17:11:49.324970 20492 net.cpp:165] Memory required for data: 16559488
I1017 17:11:49.324980 20492 layer_factory.hpp:77] Creating layer relu2
I1017 17:11:49.324995 20492 net.cpp:106] Creating Layer relu2
I1017 17:11:49.324997 20492 net.cpp:454] relu2 <- conv2
I1017 17:11:49.325002 20492 net.cpp:397] relu2 -> conv2 (in-place)
I1017 17:11:49.325227 20492 net.cpp:150] Setting up relu2
I1017 17:11:49.325237 20492 net.cpp:157] Top shape: 1 256 29 29 (215296)
I1017 17:11:49.325248 20492 net.cpp:165] Memory required for data: 17420672
I1017 17:11:49.325251 20492 layer_factory.hpp:77] Creating layer norm2
I1017 17:11:49.325256 20492 net.cpp:106] Creating Layer norm2
I1017 17:11:49.325259 20492 net.cpp:454] norm2 <- conv2
I1017 17:11:49.325273 20492 net.cpp:411] norm2 -> norm2
I1017 17:11:49.325361 20492 net.cpp:150] Setting up norm2
I1017 17:11:49.325366 20492 net.cpp:157] Top shape: 1 256 29 29 (215296)
I1017 17:11:49.325378 20492 net.cpp:165] Memory required for data: 18281856
I1017 17:11:49.325381 20492 layer_factory.hpp:77] Creating layer pool2
I1017 17:11:49.325386 20492 net.cpp:106] Creating Layer pool2
I1017 17:11:49.325387 20492 net.cpp:454] pool2 <- norm2
I1017 17:11:49.325390 20492 net.cpp:411] pool2 -> pool2
I1017 17:11:49.325424 20492 net.cpp:150] Setting up pool2
I1017 17:11:49.325428 20492 net.cpp:157] Top shape: 1 256 15 15 (57600)
I1017 17:11:49.325430 20492 net.cpp:165] Memory required for data: 18512256
I1017 17:11:49.325433 20492 layer_factory.hpp:77] Creating layer conv3
I1017 17:11:49.325439 20492 net.cpp:106] Creating Layer conv3
I1017 17:11:49.325441 20492 net.cpp:454] conv3 <- pool2
I1017 17:11:49.325445 20492 net.cpp:411] conv3 -> conv3
I1017 17:11:49.328543 20492 net.cpp:150] Setting up conv3
I1017 17:11:49.328568 20492 net.cpp:157] Top shape: 1 384 15 15 (86400)
I1017 17:11:49.328572 20492 net.cpp:165] Memory required for data: 18857856
I1017 17:11:49.328580 20492 layer_factory.hpp:77] Creating layer relu3
I1017 17:11:49.328606 20492 net.cpp:106] Creating Layer relu3
I1017 17:11:49.328610 20492 net.cpp:454] relu3 <- conv3
I1017 17:11:49.328614 20492 net.cpp:397] relu3 -> conv3 (in-place)
I1017 17:11:49.329632 20492 net.cpp:150] Setting up relu3
I1017 17:11:49.329639 20492 net.cpp:157] Top shape: 1 384 15 15 (86400)
I1017 17:11:49.329651 20492 net.cpp:165] Memory required for data: 19203456
I1017 17:11:49.329654 20492 layer_factory.hpp:77] Creating layer conv4
I1017 17:11:49.329661 20492 net.cpp:106] Creating Layer conv4
I1017 17:11:49.329664 20492 net.cpp:454] conv4 <- conv3
I1017 17:11:49.329679 20492 net.cpp:411] conv4 -> conv4
I1017 17:11:49.333571 20492 net.cpp:150] Setting up conv4
I1017 17:11:49.333614 20492 net.cpp:157] Top shape: 1 384 15 15 (86400)
I1017 17:11:49.333617 20492 net.cpp:165] Memory required for data: 19549056
I1017 17:11:49.333628 20492 layer_factory.hpp:77] Creating layer relu4
I1017 17:11:49.333648 20492 net.cpp:106] Creating Layer relu4
I1017 17:11:49.333652 20492 net.cpp:454] relu4 <- conv4
I1017 17:11:49.333662 20492 net.cpp:397] relu4 -> conv4 (in-place)
I1017 17:11:49.334645 20492 net.cpp:150] Setting up relu4
I1017 17:11:49.334677 20492 net.cpp:157] Top shape: 1 384 15 15 (86400)
I1017 17:11:49.334681 20492 net.cpp:165] Memory required for data: 19894656
I1017 17:11:49.334684 20492 layer_factory.hpp:77] Creating layer conv5
I1017 17:11:49.334697 20492 net.cpp:106] Creating Layer conv5
I1017 17:11:49.334712 20492 net.cpp:454] conv5 <- conv4
I1017 17:11:49.334717 20492 net.cpp:411] conv5 -> conv5
I1017 17:11:49.338110 20492 net.cpp:150] Setting up conv5
I1017 17:11:49.338142 20492 net.cpp:157] Top shape: 1 256 15 15 (57600)
I1017 17:11:49.338145 20492 net.cpp:165] Memory required for data: 20125056
I1017 17:11:49.338156 20492 layer_factory.hpp:77] Creating layer relu5
I1017 17:11:49.338173 20492 net.cpp:106] Creating Layer relu5
I1017 17:11:49.338176 20492 net.cpp:454] relu5 <- conv5
I1017 17:11:49.338181 20492 net.cpp:397] relu5 -> conv5 (in-place)
I1017 17:11:49.341579 20492 net.cpp:150] Setting up relu5
I1017 17:11:49.341588 20492 net.cpp:157] Top shape: 1 256 15 15 (57600)
I1017 17:11:49.341600 20492 net.cpp:165] Memory required for data: 20355456
I1017 17:11:49.341603 20492 layer_factory.hpp:77] Creating layer rpn_conv1
I1017 17:11:49.341609 20492 net.cpp:106] Creating Layer rpn_conv1
I1017 17:11:49.341612 20492 net.cpp:454] rpn_conv1 <- conv5
I1017 17:11:49.341627 20492 net.cpp:411] rpn_conv1 -> rpn_conv1
I1017 17:11:49.351413 20492 net.cpp:150] Setting up rpn_conv1
I1017 17:11:49.351421 20492 net.cpp:157] Top shape: 1 256 15 15 (57600)
I1017 17:11:49.351434 20492 net.cpp:165] Memory required for data: 20585856
I1017 17:11:49.351439 20492 layer_factory.hpp:77] Creating layer rpn_relu1
I1017 17:11:49.351445 20492 net.cpp:106] Creating Layer rpn_relu1
I1017 17:11:49.351449 20492 net.cpp:454] rpn_relu1 <- rpn_conv1
I1017 17:11:49.351462 20492 net.cpp:397] rpn_relu1 -> rpn_conv1 (in-place)
I1017 17:11:49.354614 20492 net.cpp:150] Setting up rpn_relu1
I1017 17:11:49.354621 20492 net.cpp:157] Top shape: 1 256 15 15 (57600)
I1017 17:11:49.354634 20492 net.cpp:165] Memory required for data: 20816256
I1017 17:11:49.354636 20492 layer_factory.hpp:77] Creating layer rpn_conv1_rpn_relu1_0_split
I1017 17:11:49.354643 20492 net.cpp:106] Creating Layer rpn_conv1_rpn_relu1_0_split
I1017 17:11:49.354646 20492 net.cpp:454] rpn_conv1_rpn_relu1_0_split <- rpn_conv1
I1017 17:11:49.354660 20492 net.cpp:411] rpn_conv1_rpn_relu1_0_split -> rpn_conv1_rpn_relu1_0_split_0
I1017 17:11:49.354665 20492 net.cpp:411] rpn_conv1_rpn_relu1_0_split -> rpn_conv1_rpn_relu1_0_split_1
I1017 17:11:49.354693 20492 net.cpp:150] Setting up rpn_conv1_rpn_relu1_0_split
I1017 17:11:49.354708 20492 net.cpp:157] Top shape: 1 256 15 15 (57600)
I1017 17:11:49.354712 20492 net.cpp:157] Top shape: 1 256 15 15 (57600)
I1017 17:11:49.354713 20492 net.cpp:165] Memory required for data: 21277056
I1017 17:11:49.354715 20492 layer_factory.hpp:77] Creating layer rpn_cls_score
I1017 17:11:49.354720 20492 net.cpp:106] Creating Layer rpn_cls_score
I1017 17:11:49.354722 20492 net.cpp:454] rpn_cls_score <- rpn_conv1_rpn_relu1_0_split_0
I1017 17:11:49.354727 20492 net.cpp:411] rpn_cls_score -> rpn_cls_score
I1017 17:11:49.364584 20492 net.cpp:150] Setting up rpn_cls_score
I1017 17:11:49.364606 20492 net.cpp:157] Top shape: 1 18 15 15 (4050)
I1017 17:11:49.364620 20492 net.cpp:165] Memory required for data: 21293256
I1017 17:11:49.364626 20492 layer_factory.hpp:77] Creating layer rpn_bbox_pred
I1017 17:11:49.364632 20492 net.cpp:106] Creating Layer rpn_bbox_pred
I1017 17:11:49.364634 20492 net.cpp:454] rpn_bbox_pred <- rpn_conv1_rpn_relu1_0_split_1
I1017 17:11:49.364639 20492 net.cpp:411] rpn_bbox_pred -> rpn_bbox_pred
I1017 17:11:49.373160 20492 net.cpp:150] Setting up rpn_bbox_pred
I1017 17:11:49.373169 20492 net.cpp:157] Top shape: 1 36 15 15 (8100)
I1017 17:11:49.373183 20492 net.cpp:165] Memory required for data: 21325656
I1017 17:11:49.373188 20492 layer_factory.hpp:77] Creating layer rpn_cls_score_reshape
I1017 17:11:49.373205 20492 net.cpp:106] Creating Layer rpn_cls_score_reshape
I1017 17:11:49.373208 20492 net.cpp:454] rpn_cls_score_reshape <- rpn_cls_score
I1017 17:11:49.373214 20492 net.cpp:411] rpn_cls_score_reshape -> rpn_cls_score_reshape
I1017 17:11:49.373248 20492 net.cpp:150] Setting up rpn_cls_score_reshape
I1017 17:11:49.373253 20492 net.cpp:157] Top shape: 1 2 135 15 (4050)
I1017 17:11:49.373255 20492 net.cpp:165] Memory required for data: 21341856
I1017 17:11:49.373268 20492 layer_factory.hpp:77] Creating layer rpn_cls_prob
I1017 17:11:49.373272 20492 net.cpp:106] Creating Layer rpn_cls_prob
I1017 17:11:49.373275 20492 net.cpp:454] rpn_cls_prob <- rpn_cls_score_reshape
I1017 17:11:49.373288 20492 net.cpp:411] rpn_cls_prob -> rpn_cls_prob
I1017 17:11:49.374267 20492 net.cpp:150] Setting up rpn_cls_prob
I1017 17:11:49.374274 20492 net.cpp:157] Top shape: 1 2 135 15 (4050)
I1017 17:11:49.374286 20492 net.cpp:165] Memory required for data: 21358056
I1017 17:11:49.374289 20492 layer_factory.hpp:77] Creating layer rpn_cls_prob_reshape
I1017 17:11:49.374294 20492 net.cpp:106] Creating Layer rpn_cls_prob_reshape
I1017 17:11:49.374296 20492 net.cpp:454] rpn_cls_prob_reshape <- rpn_cls_prob
I1017 17:11:49.374310 20492 net.cpp:411] rpn_cls_prob_reshape -> rpn_cls_prob_reshape
I1017 17:11:49.374328 20492 net.cpp:150] Setting up rpn_cls_prob_reshape
I1017 17:11:49.374332 20492 net.cpp:157] Top shape: 1 18 15 15 (4050)
I1017 17:11:49.374335 20492 net.cpp:165] Memory required for data: 21374256
I1017 17:11:49.374337 20492 layer_factory.hpp:77] Creating layer proposal
I1017 17:11:49.380534 20492 net.cpp:106] Creating Layer proposal
I1017 17:11:49.380563 20492 net.cpp:454] proposal <- rpn_cls_prob_reshape
I1017 17:11:49.380569 20492 net.cpp:454] proposal <- rpn_bbox_pred
I1017 17:11:49.380573 20492 net.cpp:454] proposal <- im_info
I1017 17:11:49.380578 20492 net.cpp:411] proposal -> rois
I1017 17:11:49.380584 20492 net.cpp:411] proposal -> scores
I1017 17:11:49.381851 20492 net.cpp:150] Setting up proposal
I1017 17:11:49.381873 20492 net.cpp:157] Top shape: 1 5 (5)
I1017 17:11:49.381876 20492 net.cpp:157] Top shape: 1 1 1 1 (1)
I1017 17:11:49.381880 20492 net.cpp:165] Memory required for data: 21374280
I1017 17:11:49.381882 20492 net.cpp:228] proposal does not need backward computation.
I1017 17:11:49.381886 20492 net.cpp:228] rpn_cls_prob_reshape does not need backward computation.
I1017 17:11:49.381888 20492 net.cpp:228] rpn_cls_prob does not need backward computation.
I1017 17:11:49.381901 20492 net.cpp:228] rpn_cls_score_reshape does not need backward computation.
…
