…
weight_decay: 0.0005
stepsize: 60000
snapshot: 0
snapshot_prefix: "zf_rpn"
average_loss: 100
I1018 10:16:45.152544 28603 solver.cpp:81] Creating training net from train_net file: models/pascal_voc/ZF/faster_rcnn_alt_opt/stage1_rpn_train.pt
I1018 10:16:45.153245 28603 net.cpp:49] Initializing net from parameters: 
name: "ZF"
state {
  phase: TRAIN
}
layer {
  name: "input-data"
  type: "Python"
  top: "data"
  top: "im_info"
  top: "gt_boxes"
  python_param {
    module: "roi_data_layer.layer"
    layer: "RoIDataLayer"
    param_str: "\'num_classes\': 2"
  }
}
layer {
  name: "conv1"
  type: "Convolution"
  bottom: "data"
  top: "conv1"
  param {
    lr_mult: 1
  }
  param {
    lr_mult: 2
  }
  convolution_param {
    num_output: 96
    pad: 3
    kernel_size: 7
    stride: 2
  }
}
layer {
  name: "relu1"
  type: "ReLU"
  bottom: "conv1"
  top: "conv1"
}
layer {
  name: "norm1"
  type: "LRN"
  bottom: "conv1"
  top: "norm1"
  lrn_param {
    local_size: 3
    alpha: 5e-05
    beta: 0.75
    norm_region: WITHIN_CHANNEL
    engine: CAFFE
  }
}
layer {
  name: "pool1"
  type: "Pooling"
  bottom: "norm1"
  top: "pool1"
  pooling_param {
    pool: MAX
    kernel_size: 3
    stride: 2
    pad: 1
  }
}
layer {
  name: "conv2"
  type: "Convolution"
  bottom: "pool1"
  top: "conv2"
  param {
    lr_mult: 1
  }
  param {
    lr_mult: 2
  }
  convolution_param {
    num_output: 256
    pad: 2
    kernel_size: 5
    stride: 2
  }
}
layer {
  name: "relu2"
  type: "ReLU"
  bottom: "conv2"
  top: "conv2"
}
layer {
  name: "norm2"
  type: "LRN"
  bottom: "conv2"
  top: "norm2"
  lrn_param {
    local_size: 3
    alpha: 5e-05
    beta: 0.75
    norm_region: WITHIN_CHANNEL
    engine: CAFFE
  }
}
layer {
  name: "pool2"
  type: "Pooling"
  bottom: "norm2"
  top: "pool2"
  pooling_param {
    pool: MAX
    kernel_size: 3
    stride: 2
    pad: 1
  }
}
layer {
  name: "conv3"
  type: "Convolution"
  bottom: "pool2"
  top: "conv3"
  param {
    lr_mult: 1
  }
  param {
    lr_mult: 2
  }
  convolution_param {
    num_output: 384
    pad: 1
    kernel_size: 3
    stride: 1
  }
}
layer {
  name: "relu3"
  type: "ReLU"
  bottom: "conv3"
  top: "conv3"
}
layer {
  name: "conv4"
  type: "Convolution"
  bottom: "conv3"
  top: "conv4"
  param {
    lr_mult: 1
  }
  param {
    lr_mult: 2
  }
  convolution_param {
    num_output: 384
    pad: 1
    kernel_size: 3
    stride: 1
  }
}
layer {
  name: "relu4"
  type: "ReLU"
  bottom: "conv4"
  top: "conv4"
}
layer {
  name: "conv5"
  type: "Convolution"
  bottom: "conv4"
  top: "conv5"
  param {
    lr_mult: 1
  }
  param {
    lr_mult: 2
  }
  convolution_param {
    num_output: 256
    pad: 1
    kernel_size: 3
    stride: 1
  }
}
layer {
  name: "relu5"
  type: "ReLU"
  bottom: "conv5"
  top: "conv5"
}
layer {
  name: "rpn_conv1"
  type: "Convolution"
  bottom: "conv5"
  top: "rpn_conv1"
  param {
    lr_mult: 1
  }
  param {
    lr_mult: 2
  }
  convolution_param {
    num_output: 256
    pad: 1
    kernel_size: 3
    stride: 1
    weight_filler {
      type: "gaussian"
      std: 0.01
    }
    bias_filler {
      type: "constant"
      value: 0
    }
  }
}
layer {
  name: "rpn_relu1"
  type: "ReLU"
  bottom: "rpn_conv1"
  top: "rpn_conv1"
}
layer {
  name: "rpn_cls_score"
  type: "Convolution"
  bottom: "rpn_conv1"
  top: "rpn_cls_score"
  param {
    lr_mult: 1
  }
  param {
    lr_mult: 2
  }
  convolution_param {
    num_output: 18
    pad: 0
    kernel_size: 1
    stride: 1
    weight_filler {
      type: "gaussian"
      std: 0.01
    }
    bias_filler {
      type: "constant"
      value: 0
    }
  }
}
layer {
  name: "rpn_bbox_pred"
  type: "Convolution"
  bottom: "rpn_conv1"
  top: "rpn_bbox_pred"
  param {
    lr_mult: 1
  }
  param {
    lr_mult: 2
  }
  convolution_param {
    num_output: 36
    pad: 0
    kernel_size: 1
    stride: 1
    weight_filler {
      type: "gaussian"
      std: 0.01
    }
    bias_filler {
      type: "constant"
      value: 0
    }
  }
}
layer {
  name: "rpn_cls_score_reshape"
  type: "Reshape"
  bottom: "rpn_cls_score"
  top: "rpn_cls_score_reshape"
  reshape_param {
    shape {
      dim: 0
      dim: 2
      dim: -1
      dim: 0
    }
  }
}
layer {
  name: "rpn-data"
  type: "Python"
  bottom: "rpn_cls_score"
  bottom: "gt_boxes"
  bottom: "im_info"
  bottom: "data"
  top: "rpn_labels"
  top: "rpn_bbox_targets"
  top: "rpn_bbox_inside_weights"
  top: "rpn_bbox_outside_weights"
  python_param {
    module: "rpn.anchor_target_layer"
    layer: "AnchorTargetLayer"
    param_str: "\'feat_stride\': 16"
  }
}
layer {
  name: "rpn_loss_cls"
  type: "SoftmaxWithLoss"
  bottom: "rpn_cls_score_reshape"
  bottom: "rpn_labels"
  top: "rpn_cls_loss"
  loss_weight: 1
  propagate_down: true
  propagate_down: false
  loss_param {
    ignore_label: -1
    normalize: true
  }
}
layer {
  name: "rpn_loss_bbox"
  type: "SmoothL1Loss"
  bottom: "rpn_bbox_pred"
  bottom: "rpn_bbox_targets"
  bottom: "rpn_bbox_inside_weights"
  bottom: "rpn_bbox_outside_weights"
  top: "rpn_loss_bbox"
  loss_weight: 1
  smooth_l1_loss_param {
    sigma: 3
  }
}
layer {
  name: "dummy_roi_pool_conv5"
  type: "DummyData"
  top: "dummy_roi_pool_conv5"
  dummy_data_param {
    data_filler {
      type: "gaussian"
      std: 0.01
    }
    shape {
      dim: 1
      dim: 9216
    }
  }
}
layer {
  name: "fc6"
  type: "InnerProduct"
  bottom: "dummy_roi_pool_conv5"
  top: "fc6"
  param {
    lr_mult: 0
    decay_mult: 0
  }
  param {
    lr_mult: 0
    decay_mult: 0
  }
  inner_product_param {
    num_output: 4096
  }
}
layer {
  name: "relu6"
  type: "ReLU"
  bottom: "fc6"
  top: "fc6"
}
layer {
  name: "fc7"
  type: "InnerProduct"
  bottom: "fc6"
  top: "fc7"
  param {
    lr_mult: 0
    decay_mult: 0
  }
  param {
    lr_mult: 0
    decay_mult: 0
  }
  inner_product_param {
    num_output: 4096
  }
}
layer {
  name: "silence_fc7"
  type: "Silence"
  bottom: "fc7"
}
I1018 10:16:45.153364 28603 layer_factory.hpp:77] Creating layer input-data
I1018 10:16:45.153743 28603 net.cpp:106] Creating Layer input-data
I1018 10:16:45.153753 28603 net.cpp:411] input-data -> data
I1018 10:16:45.153762 28603 net.cpp:411] input-data -> im_info
I1018 10:16:45.153767 28603 net.cpp:411] input-data -> gt_boxes
RoiDataLayer: name_to_top: {'gt_boxes': 2, 'data': 0, 'im_info': 1}
I1018 10:16:45.161280 28603 net.cpp:150] Setting up input-data
I1018 10:16:45.161298 28603 net.cpp:157] Top shape: 1 3 600 1000 (1800000)
I1018 10:16:45.161301 28603 net.cpp:157] Top shape: 1 3 (3)
I1018 10:16:45.161304 28603 net.cpp:157] Top shape: 1 4 (4)
I1018 10:16:45.161306 28603 net.cpp:165] Memory required for data: 7200028
I1018 10:16:45.161311 28603 layer_factory.hpp:77] Creating layer data_input-data_0_split
I1018 10:16:45.161322 28603 net.cpp:106] Creating Layer data_input-data_0_split
I1018 10:16:45.161326 28603 net.cpp:454] data_input-data_0_split <- data
I1018 10:16:45.161332 28603 net.cpp:411] data_input-data_0_split -> data_input-data_0_split_0
I1018 10:16:45.161339 28603 net.cpp:411] data_input-data_0_split -> data_input-data_0_split_1
I1018 10:16:45.161376 28603 net.cpp:150] Setting up data_input-data_0_split
I1018 10:16:45.161381 28603 net.cpp:157] Top shape: 1 3 600 1000 (1800000)
I1018 10:16:45.161384 28603 net.cpp:157] Top shape: 1 3 600 1000 (1800000)
I1018 10:16:45.161386 28603 net.cpp:165] Memory required for data: 21600028
I1018 10:16:45.161406 28603 layer_factory.hpp:77] Creating layer conv1
I1018 10:16:45.161414 28603 net.cpp:106] Creating Layer conv1
I1018 10:16:45.161427 28603 net.cpp:454] conv1 <- data_input-data_0_split_0
I1018 10:16:45.161430 28603 net.cpp:411] conv1 -> conv1
I1018 10:16:45.271597 28603 net.cpp:150] Setting up conv1
I1018 10:16:45.271620 28603 net.cpp:157] Top shape: 1 96 300 500 (14400000)
I1018 10:16:45.271623 28603 net.cpp:165] Memory required for data: 79200028
I1018 10:16:45.271637 28603 layer_factory.hpp:77] Creating layer relu1
I1018 10:16:45.271646 28603 net.cpp:106] Creating Layer relu1
I1018 10:16:45.271659 28603 net.cpp:454] relu1 <- conv1
I1018 10:16:45.271664 28603 net.cpp:397] relu1 -> conv1 (in-place)
I1018 10:16:45.271867 28603 net.cpp:150] Setting up relu1
I1018 10:16:45.271875 28603 net.cpp:157] Top shape: 1 96 300 500 (14400000)
I1018 10:16:45.271878 28603 net.cpp:165] Memory required for data: 136800028
I1018 10:16:45.271880 28603 layer_factory.hpp:77] Creating layer norm1
I1018 10:16:45.271888 28603 net.cpp:106] Creating Layer norm1
I1018 10:16:45.271891 28603 net.cpp:454] norm1 <- conv1
I1018 10:16:45.271895 28603 net.cpp:411] norm1 -> norm1
I1018 10:16:45.271988 28603 net.cpp:150] Setting up norm1
I1018 10:16:45.271993 28603 net.cpp:157] Top shape: 1 96 300 500 (14400000)
I1018 10:16:45.271996 28603 net.cpp:165] Memory required for data: 194400028
I1018 10:16:45.271998 28603 layer_factory.hpp:77] Creating layer pool1
I1018 10:16:45.272002 28603 net.cpp:106] Creating Layer pool1
I1018 10:16:45.272004 28603 net.cpp:454] pool1 <- norm1
I1018 10:16:45.272008 28603 net.cpp:411] pool1 -> pool1
I1018 10:16:45.272039 28603 net.cpp:150] Setting up pool1
I1018 10:16:45.272043 28603 net.cpp:157] Top shape: 1 96 151 251 (3638496)
I1018 10:16:45.272045 28603 net.cpp:165] Memory required for data: 208954012
I1018 10:16:45.272047 28603 layer_factory.hpp:77] Creating layer conv2
I1018 10:16:45.272055 28603 net.cpp:106] Creating Layer conv2
I1018 10:16:45.272061 28603 net.cpp:454] conv2 <- pool1
I1018 10:16:45.272065 28603 net.cpp:411] conv2 -> conv2
I1018 10:16:45.273476 28603 net.cpp:150] Setting up conv2
I1018 10:16:45.273497 28603 net.cpp:157] Top shape: 1 256 76 126 (2451456)
I1018 10:16:45.273500 28603 net.cpp:165] Memory required for data: 218759836
I1018 10:16:45.273507 28603 layer_factory.hpp:77] Creating layer relu2
I1018 10:16:45.273512 28603 net.cpp:106] Creating Layer relu2
I1018 10:16:45.273514 28603 net.cpp:454] relu2 <- conv2
I1018 10:16:45.273519 28603 net.cpp:397] relu2 -> conv2 (in-place)
I1018 10:16:45.273715 28603 net.cpp:150] Setting up relu2
I1018 10:16:45.273723 28603 net.cpp:157] Top shape: 1 256 76 126 (2451456)
I1018 10:16:45.273736 28603 net.cpp:165] Memory required for data: 228565660
I1018 10:16:45.273739 28603 layer_factory.hpp:77] Creating layer norm2
I1018 10:16:45.273746 28603 net.cpp:106] Creating Layer norm2
I1018 10:16:45.273748 28603 net.cpp:454] norm2 <- conv2
I1018 10:16:45.273752 28603 net.cpp:411] norm2 -> norm2
I1018 10:16:45.273828 28603 net.cpp:150] Setting up norm2
I1018 10:16:45.273834 28603 net.cpp:157] Top shape: 1 256 76 126 (2451456)
I1018 10:16:45.273836 28603 net.cpp:165] Memory required for data: 238371484
I1018 10:16:45.273838 28603 layer_factory.hpp:77] Creating layer pool2
I1018 10:16:45.273843 28603 net.cpp:106] Creating Layer pool2
I1018 10:16:45.273845 28603 net.cpp:454] pool2 <- norm2
I1018 10:16:45.273849 28603 net.cpp:411] pool2 -> pool2
I1018 10:16:45.273883 28603 net.cpp:150] Setting up pool2
I1018 10:16:45.273888 28603 net.cpp:157] Top shape: 1 256 39 64 (638976)
I1018 10:16:45.273890 28603 net.cpp:165] Memory required for data: 240927388
I1018 10:16:45.273892 28603 layer_factory.hpp:77] Creating layer conv3
I1018 10:16:45.273900 28603 net.cpp:106] Creating Layer conv3
I1018 10:16:45.273901 28603 net.cpp:454] conv3 <- pool2
I1018 10:16:45.273905 28603 net.cpp:411] conv3 -> conv3
I1018 10:16:45.276177 28603 net.cpp:150] Setting up conv3
I1018 10:16:45.276195 28603 net.cpp:157] Top shape: 1 384 39 64 (958464)
I1018 10:16:45.276197 28603 net.cpp:165] Memory required for data: 244761244
I1018 10:16:45.276206 28603 layer_factory.hpp:77] Creating layer relu3
I1018 10:16:45.276217 28603 net.cpp:106] Creating Layer relu3
I1018 10:16:45.276231 28603 net.cpp:454] relu3 <- conv3
I1018 10:16:45.276235 28603 net.cpp:397] relu3 -> conv3 (in-place)
I1018 10:16:45.276368 28603 net.cpp:150] Setting up relu3
I1018 10:16:45.276376 28603 net.cpp:157] Top shape: 1 384 39 64 (958464)
I1018 10:16:45.276377 28603 net.cpp:165] Memory required for data: 248595100
I1018 10:16:45.276379 28603 layer_factory.hpp:77] Creating layer conv4
I1018 10:16:45.276387 28603 net.cpp:106] Creating Layer conv4
I1018 10:16:45.276389 28603 net.cpp:454] conv4 <- conv3
I1018 10:16:45.276394 28603 net.cpp:411] conv4 -> conv4
I1018 10:16:45.278748 28603 net.cpp:150] Setting up conv4
I1018 10:16:45.278764 28603 net.cpp:157] Top shape: 1 384 39 64 (958464)
I1018 10:16:45.278767 28603 net.cpp:165] Memory required for data: 252428956
I1018 10:16:45.278774 28603 layer_factory.hpp:77] Creating layer relu4
I1018 10:16:45.278780 28603 net.cpp:106] Creating Layer relu4
I1018 10:16:45.278784 28603 net.cpp:454] relu4 <- conv4
I1018 10:16:45.278798 28603 net.cpp:397] relu4 -> conv4 (in-place)
I1018 10:16:45.279005 28603 net.cpp:150] Setting up relu4
I1018 10:16:45.279012 28603 net.cpp:157] Top shape: 1 384 39 64 (958464)
I1018 10:16:45.279014 28603 net.cpp:165] Memory required for data: 256262812
I1018 10:16:45.279017 28603 layer_factory.hpp:77] Creating layer conv5
I1018 10:16:45.279024 28603 net.cpp:106] Creating Layer conv5
I1018 10:16:45.279027 28603 net.cpp:454] conv5 <- conv4
I1018 10:16:45.279031 28603 net.cpp:411] conv5 -> conv5
I1018 10:16:45.280760 28603 net.cpp:150] Setting up conv5
I1018 10:16:45.280771 28603 net.cpp:157] Top shape: 1 256 39 64 (638976)
I1018 10:16:45.280774 28603 net.cpp:165] Memory required for data: 258818716
I1018 10:16:45.280782 28603 layer_factory.hpp:77] Creating layer relu5
I1018 10:16:45.280787 28603 net.cpp:106] Creating Layer relu5
I1018 10:16:45.280791 28603 net.cpp:454] relu5 <- conv5
I1018 10:16:45.280805 28603 net.cpp:397] relu5 -> conv5 (in-place)
I1018 10:16:45.281016 28603 net.cpp:150] Setting up relu5
I1018 10:16:45.281024 28603 net.cpp:157] Top shape: 1 256 39 64 (638976)
I1018 10:16:45.281028 28603 net.cpp:165] Memory required for data: 261374620
I1018 10:16:45.281029 28603 layer_factory.hpp:77] Creating layer rpn_conv1
I1018 10:16:45.281040 28603 net.cpp:106] Creating Layer rpn_conv1
I1018 10:16:45.281042 28603 net.cpp:454] rpn_conv1 <- conv5
I1018 10:16:45.281059 28603 net.cpp:411] rpn_conv1 -> rpn_conv1
I1018 10:16:45.294754 28603 net.cpp:150] Setting up rpn_conv1
I1018 10:16:45.294766 28603 net.cpp:157] Top shape: 1 256 39 64 (638976)
I1018 10:16:45.294770 28603 net.cpp:165] Memory required for data: 263930524
I1018 10:16:45.294775 28603 layer_factory.hpp:77] Creating layer rpn_relu1
I1018 10:16:45.294780 28603 net.cpp:106] Creating Layer rpn_relu1
I1018 10:16:45.294782 28603 net.cpp:454] rpn_relu1 <- rpn_conv1
I1018 10:16:45.294797 28603 net.cpp:397] rpn_relu1 -> rpn_conv1 (in-place)
I1018 10:16:45.294925 28603 net.cpp:150] Setting up rpn_relu1
I1018 10:16:45.294931 28603 net.cpp:157] Top shape: 1 256 39 64 (638976)
I1018 10:16:45.294934 28603 net.cpp:165] Memory required for data: 266486428
I1018 10:16:45.294936 28603 layer_factory.hpp:77] Creating layer rpn_conv1_rpn_relu1_0_split
I1018 10:16:45.294941 28603 net.cpp:106] Creating Layer rpn_conv1_rpn_relu1_0_split
I1018 10:16:45.294945 28603 net.cpp:454] rpn_conv1_rpn_relu1_0_split <- rpn_conv1
I1018 10:16:45.294947 28603 net.cpp:411] rpn_conv1_rpn_relu1_0_split -> rpn_conv1_rpn_relu1_0_split_0
I1018 10:16:45.294962 28603 net.cpp:411] rpn_conv1_rpn_relu1_0_split -> rpn_conv1_rpn_relu1_0_split_1
I1018 10:16:45.294993 28603 net.cpp:150] Setting up rpn_conv1_rpn_relu1_0_split
I1018 10:16:45.295011 28603 net.cpp:157] Top shape: 1 256 39 64 (638976)
I1018 10:16:45.295014 28603 net.cpp:157] Top shape: 1 256 39 64 (638976)
I1018 10:16:45.295017 28603 net.cpp:165] Memory required for data: 271598236
I1018 10:16:45.295028 28603 layer_factory.hpp:77] Creating layer rpn_cls_score
I1018 10:16:45.295035 28603 net.cpp:106] Creating Layer rpn_cls_score
I1018 10:16:45.295038 28603 net.cpp:454] rpn_cls_score <- rpn_conv1_rpn_relu1_0_split_0
I1018 10:16:45.295043 28603 net.cpp:411] rpn_cls_score -> rpn_cls_score
I1018 10:16:45.295889 28603 net.cpp:150] Setting up rpn_cls_score
I1018 10:16:45.295899 28603 net.cpp:157] Top shape: 1 18 39 64 (44928)
I1018 10:16:45.295902 28603 net.cpp:165] Memory required for data: 271777948
I1018 10:16:45.295907 28603 layer_factory.hpp:77] Creating layer rpn_cls_score_rpn_cls_score_0_split
I1018 10:16:45.295910 28603 net.cpp:106] Creating Layer rpn_cls_score_rpn_cls_score_0_split
I1018 10:16:45.295913 28603 net.cpp:454] rpn_cls_score_rpn_cls_score_0_split <- rpn_cls_score
I1018 10:16:45.295917 28603 net.cpp:411] rpn_cls_score_rpn_cls_score_0_split -> rpn_cls_score_rpn_cls_score_0_split_0
I1018 10:16:45.295933 28603 net.cpp:411] rpn_cls_score_rpn_cls_score_0_split -> rpn_cls_score_rpn_cls_score_0_split_1
I1018 10:16:45.295960 28603 net.cpp:150] Setting up rpn_cls_score_rpn_cls_score_0_split
I1018 10:16:45.295976 28603 net.cpp:157] Top shape: 1 18 39 64 (44928)
I1018 10:16:45.295979 28603 net.cpp:157] Top shape: 1 18 39 64 (44928)
I1018 10:16:45.295981 28603 net.cpp:165] Memory required for data: 272137372
I1018 10:16:45.295994 28603 layer_factory.hpp:77] Creating layer rpn_bbox_pred
I1018 10:16:45.296001 28603 net.cpp:106] Creating Layer rpn_bbox_pred
I1018 10:16:45.296005 28603 net.cpp:454] rpn_bbox_pred <- rpn_conv1_rpn_relu1_0_split_1
I1018 10:16:45.296010 28603 net.cpp:411] rpn_bbox_pred -> rpn_bbox_pred
I1018 10:16:45.296882 28603 net.cpp:150] Setting up rpn_bbox_pred
I1018 10:16:45.296891 28603 net.cpp:157] Top shape: 1 36 39 64 (89856)
I1018 10:16:45.296895 28603 net.cpp:165] Memory required for data: 272496796
I1018 10:16:45.296898 28603 layer_factory.hpp:77] Creating layer rpn_cls_score_reshape
I1018 10:16:45.296907 28603 net.cpp:106] Creating Layer rpn_cls_score_reshape
I1018 10:16:45.296911 28603 net.cpp:454] rpn_cls_score_reshape <- rpn_cls_score_rpn_cls_score_0_split_0
I1018 10:16:45.296924 28603 net.cpp:411] rpn_cls_score_reshape -> rpn_cls_score_reshape
I1018 10:16:45.296949 28603 net.cpp:150] Setting up rpn_cls_score_reshape
I1018 10:16:45.296967 28603 net.cpp:157] Top shape: 1 2 351 64 (44928)
I1018 10:16:45.296969 28603 net.cpp:165] Memory required for data: 272676508
I1018 10:16:45.296972 28603 layer_factory.hpp:77] Creating layer rpn-data
I1018 10:16:45.297364 28603 net.cpp:106] Creating Layer rpn-data
I1018 10:16:45.297372 28603 net.cpp:454] rpn-data <- rpn_cls_score_rpn_cls_score_0_split_1
I1018 10:16:45.297376 28603 net.cpp:454] rpn-data <- gt_boxes
I1018 10:16:45.297379 28603 net.cpp:454] rpn-data <- im_info
I1018 10:16:45.297382 28603 net.cpp:454] rpn-data <- data_input-data_0_split_1
I1018 10:16:45.297386 28603 net.cpp:411] rpn-data -> rpn_labels
I1018 10:16:45.297391 28603 net.cpp:411] rpn-data -> rpn_bbox_targets
I1018 10:16:45.297406 28603 net.cpp:411] rpn-data -> rpn_bbox_inside_weights
I1018 10:16:45.297411 28603 net.cpp:411] rpn-data -> rpn_bbox_outside_weights
I1018 10:16:45.298188 28603 net.cpp:150] Setting up rpn-data
I1018 10:16:45.298199 28603 net.cpp:157] Top shape: 1 1 351 64 (22464)
I1018 10:16:45.298213 28603 net.cpp:157] Top shape: 1 36 39 64 (89856)
I1018 10:16:45.298215 28603 net.cpp:157] Top shape: 1 36 39 64 (89856)
I1018 10:16:45.298218 28603 net.cpp:157] Top shape: 1 36 39 64 (89856)
I1018 10:16:45.298220 28603 net.cpp:165] Memory required for data: 273844636
I1018 10:16:45.298223 28603 layer_factory.hpp:77] Creating layer rpn_loss_cls
I1018 10:16:45.298230 28603 net.cpp:106] Creating Layer rpn_loss_cls
I1018 10:16:45.298233 28603 net.cpp:454] rpn_loss_cls <- rpn_cls_score_reshape
I1018 10:16:45.298238 28603 net.cpp:454] rpn_loss_cls <- rpn_labels
I1018 10:16:45.298240 28603 net.cpp:411] rpn_loss_cls -> rpn_cls_loss
…
           'RPN_PRE_NMS_TOP_N': 12000,
           'SCALES': [600],
           'SNAPSHOT_INFIX': 'stage1',
           'SNAPSHOT_ITERS': 10000,
           'USE_FLIPPED': True,
           'USE_PREFETCH': False},
 'USE_GPU_NMS': True}
Loaded dataset `voc_2012_train` for proposal generation
WARNING: Logging before InitGoogleLogging() is written to STDERR
I1018 10:16:55.618652 28615 net.cpp:49] Initializing net from parameters: 
name: "ZF"
input: "data"
input: "im_info"
state {
  phase: TEST
}
input_shape {
  dim: 1
  dim: 3
  dim: 224
  dim: 224
}
input_shape {
  dim: 1
  dim: 3
}
layer {
  name: "conv1"
  type: "Convolution"
  bottom: "data"
  top: "conv1"
  convolution_param {
    num_output: 96
    pad: 3
    kernel_size: 7
    stride: 2
  }
}
layer {
  name: "relu1"
  type: "ReLU"
  bottom: "conv1"
  top: "conv1"
}
layer {
  name: "norm1"
  type: "LRN"
  bottom: "conv1"
  top: "norm1"
  lrn_param {
    local_size: 3
    alpha: 5e-05
    beta: 0.75
    norm_region: WITHIN_CHANNEL
    engine: CAFFE
  }
}
layer {
  name: "pool1"
  type: "Pooling"
  bottom: "norm1"
  top: "pool1"
  pooling_param {
    pool: MAX
    kernel_size: 3
    stride: 2
    pad: 1
  }
}
layer {
  name: "conv2"
  type: "Convolution"
  bottom: "pool1"
  top: "conv2"
  convolution_param {
    num_output: 256
    pad: 2
    kernel_size: 5
    stride: 2
  }
}
layer {
  name: "relu2"
  type: "ReLU"
  bottom: "conv2"
  top: "conv2"
}
layer {
  name: "norm2"
  type: "LRN"
  bottom: "conv2"
  top: "norm2"
  lrn_param {
    local_size: 3
    alpha: 5e-05
    beta: 0.75
    norm_region: WITHIN_CHANNEL
    engine: CAFFE
  }
}
layer {
  name: "pool2"
  type: "Pooling"
  bottom: "norm2"
  top: "pool2"
  pooling_param {
    pool: MAX
    kernel_size: 3
    stride: 2
    pad: 1
  }
}
layer {
  name: "conv3"
  type: "Convolution"
  bottom: "pool2"
  top: "conv3"
  convolution_param {
    num_output: 384
    pad: 1
    kernel_size: 3
    stride: 1
  }
}
layer {
  name: "relu3"
  type: "ReLU"
  bottom: "conv3"
  top: "conv3"
}
layer {
  name: "conv4"
  type: "Convolution"
  bottom: "conv3"
  top: "conv4"
  convolution_param {
    num_output: 384
    pad: 1
    kernel_size: 3
    stride: 1
  }
}
layer {
  name: "relu4"
  type: "ReLU"
  bottom: "conv4"
  top: "conv4"
}
layer {
  name: "conv5"
  type: "Convolution"
  bottom: "conv4"
  top: "conv5"
  convolution_param {
    num_output: 256
    pad: 1
    kernel_size: 3
    stride: 1
  }
}
layer {
  name: "relu5"
  type: "ReLU"
  bottom: "conv5"
  top: "conv5"
}
layer {
  name: "rpn_conv1"
  type: "Convolution"
  bottom: "conv5"
  top: "rpn_conv1"
  convolution_param {
    num_output: 256
    pad: 1
    kernel_size: 3
    stride: 1
  }
}
layer {
  name: "rpn_relu1"
  type: "ReLU"
  bottom: "rpn_conv1"
  top: "rpn_conv1"
}
layer {
  name: "rpn_cls_score"
  type: "Convolution"
  bottom: "rpn_conv1"
  top: "rpn_cls_score"
  convolution_param {
    num_output: 18
    pad: 0
    kernel_size: 1
    stride: 1
  }
}
layer {
  name: "rpn_bbox_pred"
  type: "Convolution"
  bottom: "rpn_conv1"
  top: "rpn_bbox_pred"
  convolution_param {
    num_output: 36
    pad: 0
    kernel_size: 1
    stride: 1
  }
}
layer {
  name: "rpn_cls_score_reshape"
  type: "Reshape"
  bottom: "rpn_cls_score"
  top: "rpn_cls_score_reshape"
  reshape_param {
    shape {
      dim: 0
      dim: 2
      dim: -1
      dim: 0
    }
  }
}
layer {
  name: "rpn_cls_prob"
  type: "Softmax"
  bottom: "rpn_cls_score_reshape"
  top: "rpn_cls_prob"
}
layer {
  name: "rpn_cls_prob_reshape"
  type: "Reshape"
  bottom: "rpn_cls_prob"
  top: "rpn_cls_prob_reshape"
  reshape_param {
    shape {
      dim: 0
      dim: 18
      dim: -1
      dim: 0
    }
  }
}
layer {
  name: "proposal"
  type: "Python"
  bottom: "rpn_cls_prob_reshape"
  bottom: "rpn_bbox_pred"
  bottom: "im_info"
  top: "rois"
  top: "scores"
  python_param {
    module: "rpn.proposal_layer"
    layer: "ProposalLayer"
    param_str: "\'feat_stride\': 16"
  }
}
I1018 10:16:55.618762 28615 net.cpp:413] Input 0 -> data
I1018 10:16:55.625985 28615 net.cpp:413] Input 1 -> im_info
I1018 10:16:55.626022 28615 layer_factory.hpp:77] Creating layer conv1
I1018 10:16:55.626042 28615 net.cpp:106] Creating Layer conv1
I1018 10:16:55.626049 28615 net.cpp:454] conv1 <- data
I1018 10:16:55.626058 28615 net.cpp:411] conv1 -> conv1
I1018 10:16:55.736603 28615 net.cpp:150] Setting up conv1
I1018 10:16:55.736629 28615 net.cpp:157] Top shape: 1 96 112 112 (1204224)
I1018 10:16:55.736632 28615 net.cpp:165] Memory required for data: 4816896
I1018 10:16:55.736649 28615 layer_factory.hpp:77] Creating layer relu1
I1018 10:16:55.736660 28615 net.cpp:106] Creating Layer relu1
I1018 10:16:55.736665 28615 net.cpp:454] relu1 <- conv1
I1018 10:16:55.736671 28615 net.cpp:397] relu1 -> conv1 (in-place)
I1018 10:16:55.736877 28615 net.cpp:150] Setting up relu1
I1018 10:16:55.736886 28615 net.cpp:157] Top shape: 1 96 112 112 (1204224)
I1018 10:16:55.736889 28615 net.cpp:165] Memory required for data: 9633792
I1018 10:16:55.736891 28615 layer_factory.hpp:77] Creating layer norm1
I1018 10:16:55.736899 28615 net.cpp:106] Creating Layer norm1
I1018 10:16:55.736901 28615 net.cpp:454] norm1 <- conv1
I1018 10:16:55.736907 28615 net.cpp:411] norm1 -> norm1
I1018 10:16:55.736995 28615 net.cpp:150] Setting up norm1
I1018 10:16:55.737004 28615 net.cpp:157] Top shape: 1 96 112 112 (1204224)
I1018 10:16:55.737005 28615 net.cpp:165] Memory required for data: 14450688
I1018 10:16:55.737009 28615 layer_factory.hpp:77] Creating layer pool1
I1018 10:16:55.737013 28615 net.cpp:106] Creating Layer pool1
I1018 10:16:55.737016 28615 net.cpp:454] pool1 <- norm1
I1018 10:16:55.737020 28615 net.cpp:411] pool1 -> pool1
I1018 10:16:55.737054 28615 net.cpp:150] Setting up pool1
I1018 10:16:55.737061 28615 net.cpp:157] Top shape: 1 96 57 57 (311904)
I1018 10:16:55.737062 28615 net.cpp:165] Memory required for data: 15698304
I1018 10:16:55.737066 28615 layer_factory.hpp:77] Creating layer conv2
I1018 10:16:55.737071 28615 net.cpp:106] Creating Layer conv2
I1018 10:16:55.737074 28615 net.cpp:454] conv2 <- pool1
I1018 10:16:55.737081 28615 net.cpp:411] conv2 -> conv2
I1018 10:16:55.738709 28615 net.cpp:150] Setting up conv2
I1018 10:16:55.738720 28615 net.cpp:157] Top shape: 1 256 29 29 (215296)
I1018 10:16:55.738723 28615 net.cpp:165] Memory required for data: 16559488
I1018 10:16:55.738731 28615 layer_factory.hpp:77] Creating layer relu2
I1018 10:16:55.738739 28615 net.cpp:106] Creating Layer relu2
I1018 10:16:55.738742 28615 net.cpp:454] relu2 <- conv2
I1018 10:16:55.738747 28615 net.cpp:397] relu2 -> conv2 (in-place)
I1018 10:16:55.738957 28615 net.cpp:150] Setting up relu2
I1018 10:16:55.738966 28615 net.cpp:157] Top shape: 1 256 29 29 (215296)
I1018 10:16:55.738968 28615 net.cpp:165] Memory required for data: 17420672
I1018 10:16:55.738971 28615 layer_factory.hpp:77] Creating layer norm2
I1018 10:16:55.738976 28615 net.cpp:106] Creating Layer norm2
I1018 10:16:55.738979 28615 net.cpp:454] norm2 <- conv2
I1018 10:16:55.738983 28615 net.cpp:411] norm2 -> norm2
I1018 10:16:55.739066 28615 net.cpp:150] Setting up norm2
I1018 10:16:55.739074 28615 net.cpp:157] Top shape: 1 256 29 29 (215296)
I1018 10:16:55.739076 28615 net.cpp:165] Memory required for data: 18281856
I1018 10:16:55.739079 28615 layer_factory.hpp:77] Creating layer pool2
I1018 10:16:55.739084 28615 net.cpp:106] Creating Layer pool2
I1018 10:16:55.739085 28615 net.cpp:454] pool2 <- norm2
I1018 10:16:55.739090 28615 net.cpp:411] pool2 -> pool2
I1018 10:16:55.739125 28615 net.cpp:150] Setting up pool2
I1018 10:16:55.739131 28615 net.cpp:157] Top shape: 1 256 15 15 (57600)
I1018 10:16:55.739133 28615 net.cpp:165] Memory required for data: 18512256
I1018 10:16:55.739135 28615 layer_factory.hpp:77] Creating layer conv3
I1018 10:16:55.739142 28615 net.cpp:106] Creating Layer conv3
I1018 10:16:55.739145 28615 net.cpp:454] conv3 <- pool2
I1018 10:16:55.739151 28615 net.cpp:411] conv3 -> conv3
I1018 10:16:55.740938 28615 net.cpp:150] Setting up conv3
I1018 10:16:55.740952 28615 net.cpp:157] Top shape: 1 384 15 15 (86400)
I1018 10:16:55.740954 28615 net.cpp:165] Memory required for data: 18857856
I1018 10:16:55.740962 28615 layer_factory.hpp:77] Creating layer relu3
I1018 10:16:55.740967 28615 net.cpp:106] Creating Layer relu3
I1018 10:16:55.740970 28615 net.cpp:454] relu3 <- conv3
I1018 10:16:55.740978 28615 net.cpp:397] relu3 -> conv3 (in-place)
I1018 10:16:55.741108 28615 net.cpp:150] Setting up relu3
I1018 10:16:55.741117 28615 net.cpp:157] Top shape: 1 384 15 15 (86400)
I1018 10:16:55.741118 28615 net.cpp:165] Memory required for data: 19203456
I1018 10:16:55.741122 28615 layer_factory.hpp:77] Creating layer conv4
I1018 10:16:55.741127 28615 net.cpp:106] Creating Layer conv4
I1018 10:16:55.741129 28615 net.cpp:454] conv4 <- conv3
I1018 10:16:55.741134 28615 net.cpp:411] conv4 -> conv4
I1018 10:16:55.743551 28615 net.cpp:150] Setting up conv4
I1018 10:16:55.743568 28615 net.cpp:157] Top shape: 1 384 15 15 (86400)
I1018 10:16:55.743571 28615 net.cpp:165] Memory required for data: 19549056
I1018 10:16:55.743578 28615 layer_factory.hpp:77] Creating layer relu4
I1018 10:16:55.743585 28615 net.cpp:106] Creating Layer relu4
I1018 10:16:55.743589 28615 net.cpp:454] relu4 <- conv4
I1018 10:16:55.743595 28615 net.cpp:397] relu4 -> conv4 (in-place)
I1018 10:16:55.743816 28615 net.cpp:150] Setting up relu4
I1018 10:16:55.743825 28615 net.cpp:157] Top shape: 1 384 15 15 (86400)
I1018 10:16:55.743827 28615 net.cpp:165] Memory required for data: 19894656
I1018 10:16:55.743830 28615 layer_factory.hpp:77] Creating layer conv5
I1018 10:16:55.743839 28615 net.cpp:106] Creating Layer conv5
I1018 10:16:55.743841 28615 net.cpp:454] conv5 <- conv4
I1018 10:16:55.743847 28615 net.cpp:411] conv5 -> conv5
I1018 10:16:55.745620 28615 net.cpp:150] Setting up conv5
I1018 10:16:55.745632 28615 net.cpp:157] Top shape: 1 256 15 15 (57600)
I1018 10:16:55.745635 28615 net.cpp:165] Memory required for data: 20125056
I1018 10:16:55.745645 28615 layer_factory.hpp:77] Creating layer relu5
I1018 10:16:55.745651 28615 net.cpp:106] Creating Layer relu5
I1018 10:16:55.745654 28615 net.cpp:454] relu5 <- conv5
I1018 10:16:55.745659 28615 net.cpp:397] relu5 -> conv5 (in-place)
I1018 10:16:55.745870 28615 net.cpp:150] Setting up relu5
I1018 10:16:55.745880 28615 net.cpp:157] Top shape: 1 256 15 15 (57600)
I1018 10:16:55.745883 28615 net.cpp:165] Memory required for data: 20355456
I1018 10:16:55.745885 28615 layer_factory.hpp:77] Creating layer rpn_conv1
I1018 10:16:55.745892 28615 net.cpp:106] Creating Layer rpn_conv1
I1018 10:16:55.745893 28615 net.cpp:454] rpn_conv1 <- conv5
I1018 10:16:55.745900 28615 net.cpp:411] rpn_conv1 -> rpn_conv1
I1018 10:16:55.747337 28615 net.cpp:150] Setting up rpn_conv1
I1018 10:16:55.747349 28615 net.cpp:157] Top shape: 1 256 15 15 (57600)
I1018 10:16:55.747350 28615 net.cpp:165] Memory required for data: 20585856
I1018 10:16:55.747356 28615 layer_factory.hpp:77] Creating layer rpn_relu1
I1018 10:16:55.747361 28615 net.cpp:106] Creating Layer rpn_relu1
I1018 10:16:55.747364 28615 net.cpp:454] rpn_relu1 <- rpn_conv1
I1018 10:16:55.747370 28615 net.cpp:397] rpn_relu1 -> rpn_conv1 (in-place)
I1018 10:16:55.747503 28615 net.cpp:150] Setting up rpn_relu1
I1018 10:16:55.747510 28615 net.cpp:157] Top shape: 1 256 15 15 (57600)
I1018 10:16:55.747512 28615 net.cpp:165] Memory required for data: 20816256
I1018 10:16:55.747515 28615 layer_factory.hpp:77] Creating layer rpn_conv1_rpn_relu1_0_split
I1018 10:16:55.747522 28615 net.cpp:106] Creating Layer rpn_conv1_rpn_relu1_0_split
I1018 10:16:55.747525 28615 net.cpp:454] rpn_conv1_rpn_relu1_0_split <- rpn_conv1
I1018 10:16:55.747530 28615 net.cpp:411] rpn_conv1_rpn_relu1_0_split -> rpn_conv1_rpn_relu1_0_split_0
I1018 10:16:55.747537 28615 net.cpp:411] rpn_conv1_rpn_relu1_0_split -> rpn_conv1_rpn_relu1_0_split_1
I1018 10:16:55.747577 28615 net.cpp:150] Setting up rpn_conv1_rpn_relu1_0_split
I1018 10:16:55.747584 28615 net.cpp:157] Top shape: 1 256 15 15 (57600)
I1018 10:16:55.747589 28615 net.cpp:157] Top shape: 1 256 15 15 (57600)
I1018 10:16:55.747592 28615 net.cpp:165] Memory required for data: 21277056
I1018 10:16:55.747594 28615 layer_factory.hpp:77] Creating layer rpn_cls_score
I1018 10:16:55.747601 28615 net.cpp:106] Creating Layer rpn_cls_score
I1018 10:16:55.747604 28615 net.cpp:454] rpn_cls_score <- rpn_conv1_rpn_relu1_0_split_0
I1018 10:16:55.747611 28615 net.cpp:411] rpn_cls_score -> rpn_cls_score
I1018 10:16:55.748473 28615 net.cpp:150] Setting up rpn_cls_score
I1018 10:16:55.748483 28615 net.cpp:157] Top shape: 1 18 15 15 (4050)
I1018 10:16:55.748486 28615 net.cpp:165] Memory required for data: 21293256
I1018 10:16:55.748491 28615 layer_factory.hpp:77] Creating layer rpn_bbox_pred
I1018 10:16:55.748497 28615 net.cpp:106] Creating Layer rpn_bbox_pred
I1018 10:16:55.748500 28615 net.cpp:454] rpn_bbox_pred <- rpn_conv1_rpn_relu1_0_split_1
I1018 10:16:55.748507 28615 net.cpp:411] rpn_bbox_pred -> rpn_bbox_pred
I1018 10:16:55.749214 28615 net.cpp:150] Setting up rpn_bbox_pred
I1018 10:16:55.749224 28615 net.cpp:157] Top shape: 1 36 15 15 (8100)
I1018 10:16:55.749228 28615 net.cpp:165] Memory required for data: 21325656
I1018 10:16:55.749233 28615 layer_factory.hpp:77] Creating layer rpn_cls_score_reshape
I1018 10:16:55.749240 28615 net.cpp:106] Creating Layer rpn_cls_score_reshape
I1018 10:16:55.749243 28615 net.cpp:454] rpn_cls_score_reshape <- rpn_cls_score
I1018 10:16:55.749249 28615 net.cpp:411] rpn_cls_score_reshape -> rpn_cls_score_reshape
I1018 10:16:55.749284 28615 net.cpp:150] Setting up rpn_cls_score_reshape
I1018 10:16:55.749292 28615 net.cpp:157] Top shape: 1 2 135 15 (4050)
I1018 10:16:55.749294 28615 net.cpp:165] Memory required for data: 21341856
I1018 10:16:55.749296 28615 layer_factory.hpp:77] Creating layer rpn_cls_prob
I1018 10:16:55.749301 28615 net.cpp:106] Creating Layer rpn_cls_prob
I1018 10:16:55.749305 28615 net.cpp:454] rpn_cls_prob <- rpn_cls_score_reshape
I1018 10:16:55.749310 28615 net.cpp:411] rpn_cls_prob -> rpn_cls_prob
I1018 10:16:55.749480 28615 net.cpp:150] Setting up rpn_cls_prob
I1018 10:16:55.749487 28615 net.cpp:157] Top shape: 1 2 135 15 (4050)
I1018 10:16:55.749490 28615 net.cpp:165] Memory required for data: 21358056
I1018 10:16:55.749492 28615 layer_factory.hpp:77] Creating layer rpn_cls_prob_reshape
I1018 10:16:55.749500 28615 net.cpp:106] Creating Layer rpn_cls_prob_reshape
I1018 10:16:55.749502 28615 net.cpp:454] rpn_cls_prob_reshape <- rpn_cls_prob
I1018 10:16:55.749508 28615 net.cpp:411] rpn_cls_prob_reshape -> rpn_cls_prob_reshape
I1018 10:16:55.749536 28615 net.cpp:150] Setting up rpn_cls_prob_reshape
I1018 10:16:55.749541 28615 net.cpp:157] Top shape: 1 18 15 15 (4050)
I1018 10:16:55.749543 28615 net.cpp:165] Memory required for data: 21374256
I1018 10:16:55.749547 28615 layer_factory.hpp:77] Creating layer proposal
I1018 10:16:55.754535 28615 net.cpp:106] Creating Layer proposal
I1018 10:16:55.754552 28615 net.cpp:454] proposal <- rpn_cls_prob_reshape
I1018 10:16:55.754559 28615 net.cpp:454] proposal <- rpn_bbox_pred
I1018 10:16:55.754561 28615 net.cpp:454] proposal <- im_info
I1018 10:16:55.754566 28615 net.cpp:411] proposal -> rois
I1018 10:16:55.754572 28615 net.cpp:411] proposal -> scores
I1018 10:16:55.755383 28615 net.cpp:150] Setting up proposal
I1018 10:16:55.755398 28615 net.cpp:157] Top shape: 1 5 (5)
I1018 10:16:55.755403 28615 net.cpp:157] Top shape: 1 1 1 1 (1)
I1018 10:16:55.755405 28615 net.cpp:165] Memory required for data: 21374280
I1018 10:16:55.755409 28615 net.cpp:228] proposal does not need backward computation.
I1018 10:16:55.755412 28615 net.cpp:228] rpn_cls_prob_reshape does not need backward computation.
I1018 10:16:55.755415 28615 net.cpp:228] rpn_cls_prob does not need backward computation.
I1018 10:16:55.755419 28615 net.cpp:228] rpn_cls_score_reshape does not need backward computation.
…
average_loss: 100
I1018 10:20:58.971942 28632 solver.cpp:81] Creating training net from train_net file: models/pascal_voc/ZF/faster_rcnn_alt_opt/stage1_fast_rcnn_train.pt
I1018 10:20:58.972735 28632 net.cpp:49] Initializing net from parameters: 
name: "ZF"
state {
  phase: TRAIN
}
layer {
  name: "data"
  type: "Python"
  top: "data"
  top: "rois"
  top: "labels"
  top: "bbox_targets"
  top: "bbox_inside_weights"
  top: "bbox_outside_weights"
  python_param {
    module: "roi_data_layer.layer"
    layer: "RoIDataLayer"
    param_str: "\'num_classes\': 2"
  }
}
layer {
  name: "conv1"
  type: "Convolution"
  bottom: "data"
  top: "conv1"
  param {
    lr_mult: 1
  }
  param {
    lr_mult: 2
  }
  convolution_param {
    num_output: 96
    pad: 3
    kernel_size: 7
    stride: 2
  }
}
layer {
  name: "relu1"
  type: "ReLU"
  bottom: "conv1"
  top: "conv1"
}
layer {
  name: "norm1"
  type: "LRN"
  bottom: "conv1"
  top: "norm1"
  lrn_param {
    local_size: 3
    alpha: 5e-05
    beta: 0.75
    norm_region: WITHIN_CHANNEL
    engine: CAFFE
  }
}
layer {
  name: "pool1"
  type: "Pooling"
  bottom: "norm1"
  top: "pool1"
  pooling_param {
    pool: MAX
    kernel_size: 3
    stride: 2
    pad: 1
  }
}
layer {
  name: "conv2"
  type: "Convolution"
  bottom: "pool1"
  top: "conv2"
  param {
    lr_mult: 1
  }
  param {
    lr_mult: 2
  }
  convolution_param {
    num_output: 256
    pad: 2
    kernel_size: 5
    stride: 2
  }
}
layer {
  name: "relu2"
  type: "ReLU"
  bottom: "conv2"
  top: "conv2"
}
layer {
  name: "norm2"
  type: "LRN"
  bottom: "conv2"
  top: "norm2"
  lrn_param {
    local_size: 3
    alpha: 5e-05
    beta: 0.75
    norm_region: WITHIN_CHANNEL
    engine: CAFFE
  }
}
layer {
  name: "pool2"
  type: "Pooling"
  bottom: "norm2"
  top: "pool2"
  pooling_param {
    pool: MAX
    kernel_size: 3
    stride: 2
    pad: 1
  }
}
layer {
  name: "conv3"
  type: "Convolution"
  bottom: "pool2"
  top: "conv3"
  param {
    lr_mult: 1
  }
  param {
    lr_mult: 2
  }
  convolution_param {
    num_output: 384
    pad: 1
    kernel_size: 3
    stride: 1
  }
}
layer {
  name: "relu3"
  type: "ReLU"
  bottom: "conv3"
  top: "conv3"
}
layer {
  name: "conv4"
  type: "Convolution"
  bottom: "conv3"
  top: "conv4"
  param {
    lr_mult: 1
  }
  param {
    lr_mult: 2
  }
  convolution_param {
    num_output: 384
    pad: 1
    kernel_size: 3
    stride: 1
  }
}
layer {
  name: "relu4"
  type: "ReLU"
  bottom: "conv4"
  top: "conv4"
}
layer {
  name: "conv5"
  type: "Convolution"
  bottom: "conv4"
  top: "conv5"
  param {
    lr_mult: 1
  }
  param {
    lr_mult: 2
  }
  convolution_param {
    num_output: 256
    pad: 1
    kernel_size: 3
    stride: 1
  }
}
layer {
  name: "relu5"
  type: "ReLU"
  bottom: "conv5"
  top: "conv5"
}
layer {
  name: "roi_pool_conv5"
  type: "ROIPooling"
  bottom: "conv5"
  bottom: "rois"
  top: "roi_pool_conv5"
  roi_pooling_param {
    pooled_h: 6
    pooled_w: 6
    spatial_scale: 0.0625
  }
}
layer {
  name: "fc6"
  type: "InnerProduct"
  bottom: "roi_pool_conv5"
  top: "fc6"
  param {
    lr_mult: 1
  }
  param {
    lr_mult: 2
  }
  inner_product_param {
    num_output: 4096
  }
}
layer {
  name: "relu6"
  type: "ReLU"
  bottom: "fc6"
  top: "fc6"
}
layer {
  name: "drop6"
  type: "Dropout"
  bottom: "fc6"
  top: "fc6"
  dropout_param {
    dropout_ratio: 0.5
    scale_train: false
  }
}
layer {
  name: "fc7"
  type: "InnerProduct"
  bottom: "fc6"
  top: "fc7"
  param {
    lr_mult: 1
  }
  param {
    lr_mult: 2
  }
  inner_product_param {
    num_output: 4096
  }
}
layer {
  name: "relu7"
  type: "ReLU"
  bottom: "fc7"
  top: "fc7"
}
layer {
  name: "drop7"
  type: "Dropout"
  bottom: "fc7"
  top: "fc7"
  dropout_param {
    dropout_ratio: 0.5
    scale_train: false
  }
}
layer {
  name: "cls_score"
  type: "InnerProduct"
  bottom: "fc7"
  top: "cls_score"
  param {
    lr_mult: 1
  }
  param {
    lr_mult: 2
  }
  inner_product_param {
    num_output: 2
    weight_filler {
      type: "gaussian"
      std: 0.01
    }
    bias_filler {
      type: "constant"
      value: 0
    }
  }
}
layer {
  name: "bbox_pred"
  type: "InnerProduct"
  bottom: "fc7"
  top: "bbox_pred"
  param {
    lr_mult: 1
  }
  param {
    lr_mult: 2
  }
  inner_product_param {
    num_output: 8
    weight_filler {
      type: "gaussian"
      std: 0.001
    }
    bias_filler {
      type: "constant"
      value: 0
    }
  }
}
layer {
  name: "loss_cls"
  type: "SoftmaxWithLoss"
  bottom: "cls_score"
  bottom: "labels"
  top: "cls_loss"
  loss_weight: 1
  propagate_down: true
  propagate_down: false
  loss_param {
    ignore_label: -1
    normalize: true
  }
}
layer {
  name: "loss_bbox"
  type: "SmoothL1Loss"
  bottom: "bbox_pred"
  bottom: "bbox_targets"
  bottom: "bbox_inside_weights"
  bottom: "bbox_outside_weights"
  top: "bbox_loss"
  loss_weight: 1
}
layer {
  name: "rpn_conv1"
  type: "Convolution"
  bottom: "conv5"
  top: "rpn_conv1"
  param {
    lr_mult: 0
    decay_mult: 0
  }
  param {
    lr_mult: 0
    decay_mult: 0
  }
  convolution_param {
    num_output: 256
    pad: 1
    kernel_size: 3
    stride: 1
    weight_filler {
      type: "gaussian"
      std: 0.01
    }
    bias_filler {
      type: "constant"
      value: 0
    }
  }
}
layer {
  name: "rpn_relu1"
  type: "ReLU"
  bottom: "rpn_conv1"
  top: "rpn_conv1"
}
layer {
  name: "rpn_cls_score"
  type: "Convolution"
  bottom: "rpn_conv1"
  top: "rpn_cls_score"
  param {
    lr_mult: 0
    decay_mult: 0
  }
  param {
    lr_mult: 0
    decay_mult: 0
  }
  convolution_param {
    num_output: 18
    pad: 0
    kernel_size: 1
    stride: 1
    weight_filler {
      type: "gaussian"
      std: 0.01
    }
    bias_filler {
      type: "constant"
      value: 0
    }
  }
}
layer {
  name: "rpn_bbox_pred"
  type: "Convolution"
  bottom: "rpn_conv1"
  top: "rpn_bbox_pred"
  param {
    lr_mult: 0
    decay_mult: 0
  }
  param {
    lr_mult: 0
    decay_mult: 0
  }
  convolution_param {
    num_output: 36
    pad: 0
    kernel_size: 1
    stride: 1
    weight_filler {
      type: "gaussian"
      std: 0.01
    }
    bias_filler {
      type: "constant"
      value: 0
    }
  }
}
layer {
  name: "silence_rpn_cls_score"
  type: "Silence"
  bottom: "rpn_cls_score"
}
layer {
  name: "silence_rpn_bbox_pred"
  type: "Silence"
  bottom: "rpn_bbox_pred"
}
I1018 10:20:58.972864 28632 layer_factory.hpp:77] Creating layer data
I1018 10:20:58.973306 28632 net.cpp:106] Creating Layer data
I1018 10:20:58.973315 28632 net.cpp:411] data -> data
I1018 10:20:58.973327 28632 net.cpp:411] data -> rois
I1018 10:20:58.973333 28632 net.cpp:411] data -> labels
I1018 10:20:58.973338 28632 net.cpp:411] data -> bbox_targets
I1018 10:20:58.973342 28632 net.cpp:411] data -> bbox_inside_weights
I1018 10:20:58.973347 28632 net.cpp:411] data -> bbox_outside_weights
RoiDataLayer: name_to_top: {'bbox_inside_weights': 4, 'labels': 2, 'rois': 1, 'bbox_targets': 3, 'bbox_outside_weights': 5, 'data': 0}
I1018 10:20:58.980868 28632 net.cpp:150] Setting up data
I1018 10:20:58.980901 28632 net.cpp:157] Top shape: 2 3 600 1000 (3600000)
I1018 10:20:58.980906 28632 net.cpp:157] Top shape: 1 5 (5)
I1018 10:20:58.980917 28632 net.cpp:157] Top shape: 1 (1)
I1018 10:20:58.980921 28632 net.cpp:157] Top shape: 1 8 (8)
I1018 10:20:58.980923 28632 net.cpp:157] Top shape: 1 8 (8)
I1018 10:20:58.980937 28632 net.cpp:157] Top shape: 1 8 (8)
I1018 10:20:58.980938 28632 net.cpp:165] Memory required for data: 14400120
I1018 10:20:58.980942 28632 layer_factory.hpp:77] Creating layer conv1
I1018 10:20:58.980952 28632 net.cpp:106] Creating Layer conv1
I1018 10:20:58.980955 28632 net.cpp:454] conv1 <- data
I1018 10:20:58.980962 28632 net.cpp:411] conv1 -> conv1
I1018 10:20:59.085707 28632 net.cpp:150] Setting up conv1
I1018 10:20:59.085731 28632 net.cpp:157] Top shape: 2 96 300 500 (28800000)
I1018 10:20:59.085733 28632 net.cpp:165] Memory required for data: 129600120
I1018 10:20:59.085748 28632 layer_factory.hpp:77] Creating layer relu1
I1018 10:20:59.085768 28632 net.cpp:106] Creating Layer relu1
I1018 10:20:59.085772 28632 net.cpp:454] relu1 <- conv1
I1018 10:20:59.085777 28632 net.cpp:397] relu1 -> conv1 (in-place)
I1018 10:20:59.086010 28632 net.cpp:150] Setting up relu1
I1018 10:20:59.086019 28632 net.cpp:157] Top shape: 2 96 300 500 (28800000)
I1018 10:20:59.086021 28632 net.cpp:165] Memory required for data: 244800120
I1018 10:20:59.086024 28632 layer_factory.hpp:77] Creating layer norm1
I1018 10:20:59.086031 28632 net.cpp:106] Creating Layer norm1
I1018 10:20:59.086035 28632 net.cpp:454] norm1 <- conv1
I1018 10:20:59.086038 28632 net.cpp:411] norm1 -> norm1
I1018 10:20:59.086115 28632 net.cpp:150] Setting up norm1
I1018 10:20:59.086122 28632 net.cpp:157] Top shape: 2 96 300 500 (28800000)
I1018 10:20:59.086123 28632 net.cpp:165] Memory required for data: 360000120
I1018 10:20:59.086127 28632 layer_factory.hpp:77] Creating layer pool1
I1018 10:20:59.086132 28632 net.cpp:106] Creating Layer pool1
I1018 10:20:59.086133 28632 net.cpp:454] pool1 <- norm1
I1018 10:20:59.086138 28632 net.cpp:411] pool1 -> pool1
I1018 10:20:59.086160 28632 net.cpp:150] Setting up pool1
I1018 10:20:59.086164 28632 net.cpp:157] Top shape: 2 96 151 251 (7276992)
I1018 10:20:59.086166 28632 net.cpp:165] Memory required for data: 389108088
I1018 10:20:59.086169 28632 layer_factory.hpp:77] Creating layer conv2
I1018 10:20:59.086176 28632 net.cpp:106] Creating Layer conv2
I1018 10:20:59.086181 28632 net.cpp:454] conv2 <- pool1
I1018 10:20:59.086185 28632 net.cpp:411] conv2 -> conv2
I1018 10:20:59.087589 28632 net.cpp:150] Setting up conv2
I1018 10:20:59.087599 28632 net.cpp:157] Top shape: 2 256 76 126 (4902912)
I1018 10:20:59.087602 28632 net.cpp:165] Memory required for data: 408719736
I1018 10:20:59.087621 28632 layer_factory.hpp:77] Creating layer relu2
I1018 10:20:59.087626 28632 net.cpp:106] Creating Layer relu2
I1018 10:20:59.087630 28632 net.cpp:454] relu2 <- conv2
I1018 10:20:59.087633 28632 net.cpp:397] relu2 -> conv2 (in-place)
I1018 10:20:59.087829 28632 net.cpp:150] Setting up relu2
I1018 10:20:59.087839 28632 net.cpp:157] Top shape: 2 256 76 126 (4902912)
I1018 10:20:59.087842 28632 net.cpp:165] Memory required for data: 428331384
I1018 10:20:59.087846 28632 layer_factory.hpp:77] Creating layer norm2
I1018 10:20:59.087860 28632 net.cpp:106] Creating Layer norm2
I1018 10:20:59.087862 28632 net.cpp:454] norm2 <- conv2
I1018 10:20:59.087867 28632 net.cpp:411] norm2 -> norm2
I1018 10:20:59.087947 28632 net.cpp:150] Setting up norm2
I1018 10:20:59.087952 28632 net.cpp:157] Top shape: 2 256 76 126 (4902912)
I1018 10:20:59.087955 28632 net.cpp:165] Memory required for data: 447943032
I1018 10:20:59.087957 28632 layer_factory.hpp:77] Creating layer pool2
I1018 10:20:59.087963 28632 net.cpp:106] Creating Layer pool2
I1018 10:20:59.087966 28632 net.cpp:454] pool2 <- norm2
I1018 10:20:59.087970 28632 net.cpp:411] pool2 -> pool2
I1018 10:20:59.088003 28632 net.cpp:150] Setting up pool2
I1018 10:20:59.088007 28632 net.cpp:157] Top shape: 2 256 39 64 (1277952)
I1018 10:20:59.088009 28632 net.cpp:165] Memory required for data: 453054840
I1018 10:20:59.088011 28632 layer_factory.hpp:77] Creating layer conv3
I1018 10:20:59.088018 28632 net.cpp:106] Creating Layer conv3
I1018 10:20:59.088021 28632 net.cpp:454] conv3 <- pool2
I1018 10:20:59.088027 28632 net.cpp:411] conv3 -> conv3
I1018 10:20:59.090250 28632 net.cpp:150] Setting up conv3
I1018 10:20:59.090267 28632 net.cpp:157] Top shape: 2 384 39 64 (1916928)
I1018 10:20:59.090271 28632 net.cpp:165] Memory required for data: 460722552
I1018 10:20:59.090281 28632 layer_factory.hpp:77] Creating layer relu3
I1018 10:20:59.090289 28632 net.cpp:106] Creating Layer relu3
I1018 10:20:59.090302 28632 net.cpp:454] relu3 <- conv3
I1018 10:20:59.090308 28632 net.cpp:397] relu3 -> conv3 (in-place)
I1018 10:20:59.090442 28632 net.cpp:150] Setting up relu3
I1018 10:20:59.090450 28632 net.cpp:157] Top shape: 2 384 39 64 (1916928)
I1018 10:20:59.090451 28632 net.cpp:165] Memory required for data: 468390264
I1018 10:20:59.090453 28632 layer_factory.hpp:77] Creating layer conv4
I1018 10:20:59.090461 28632 net.cpp:106] Creating Layer conv4
I1018 10:20:59.090463 28632 net.cpp:454] conv4 <- conv3
I1018 10:20:59.090468 28632 net.cpp:411] conv4 -> conv4
I1018 10:20:59.092739 28632 net.cpp:150] Setting up conv4
I1018 10:20:59.092756 28632 net.cpp:157] Top shape: 2 384 39 64 (1916928)
I1018 10:20:59.092758 28632 net.cpp:165] Memory required for data: 476057976
I1018 10:20:59.092764 28632 layer_factory.hpp:77] Creating layer relu4
I1018 10:20:59.092772 28632 net.cpp:106] Creating Layer relu4
I1018 10:20:59.092775 28632 net.cpp:454] relu4 <- conv4
I1018 10:20:59.092789 28632 net.cpp:397] relu4 -> conv4 (in-place)
I1018 10:20:59.093014 28632 net.cpp:150] Setting up relu4
I1018 10:20:59.093024 28632 net.cpp:157] Top shape: 2 384 39 64 (1916928)
I1018 10:20:59.093026 28632 net.cpp:165] Memory required for data: 483725688
I1018 10:20:59.093029 28632 layer_factory.hpp:77] Creating layer conv5
I1018 10:20:59.093036 28632 net.cpp:106] Creating Layer conv5
I1018 10:20:59.093039 28632 net.cpp:454] conv5 <- conv4
I1018 10:20:59.093044 28632 net.cpp:411] conv5 -> conv5
I1018 10:20:59.094753 28632 net.cpp:150] Setting up conv5
I1018 10:20:59.094765 28632 net.cpp:157] Top shape: 2 256 39 64 (1277952)
I1018 10:20:59.094768 28632 net.cpp:165] Memory required for data: 488837496
I1018 10:20:59.094777 28632 layer_factory.hpp:77] Creating layer relu5
I1018 10:20:59.094784 28632 net.cpp:106] Creating Layer relu5
I1018 10:20:59.094786 28632 net.cpp:454] relu5 <- conv5
I1018 10:20:59.094800 28632 net.cpp:397] relu5 -> conv5 (in-place)
I1018 10:20:59.095013 28632 net.cpp:150] Setting up relu5
I1018 10:20:59.095022 28632 net.cpp:157] Top shape: 2 256 39 64 (1277952)
I1018 10:20:59.095024 28632 net.cpp:165] Memory required for data: 493949304
I1018 10:20:59.095027 28632 layer_factory.hpp:77] Creating layer conv5_relu5_0_split
I1018 10:20:59.095032 28632 net.cpp:106] Creating Layer conv5_relu5_0_split
I1018 10:20:59.095034 28632 net.cpp:454] conv5_relu5_0_split <- conv5
I1018 10:20:59.095039 28632 net.cpp:411] conv5_relu5_0_split -> conv5_relu5_0_split_0
I1018 10:20:59.095054 28632 net.cpp:411] conv5_relu5_0_split -> conv5_relu5_0_split_1
I1018 10:20:59.095098 28632 net.cpp:150] Setting up conv5_relu5_0_split
I1018 10:20:59.095103 28632 net.cpp:157] Top shape: 2 256 39 64 (1277952)
I1018 10:20:59.095108 28632 net.cpp:157] Top shape: 2 256 39 64 (1277952)
I1018 10:20:59.095109 28632 net.cpp:165] Memory required for data: 504172920
I1018 10:20:59.095111 28632 layer_factory.hpp:77] Creating layer roi_pool_conv5
I1018 10:20:59.095119 28632 net.cpp:106] Creating Layer roi_pool_conv5
I1018 10:20:59.095122 28632 net.cpp:454] roi_pool_conv5 <- conv5_relu5_0_split_0
I1018 10:20:59.095126 28632 net.cpp:454] roi_pool_conv5 <- rois
I1018 10:20:59.095130 28632 net.cpp:411] roi_pool_conv5 -> roi_pool_conv5
I1018 10:20:59.095147 28632 roi_pooling_layer.cpp:30] Spatial scale: 0.0625
I1018 10:20:59.095194 28632 net.cpp:150] Setting up roi_pool_conv5
I1018 10:20:59.095199 28632 net.cpp:157] Top shape: 1 256 6 6 (9216)
I1018 10:20:59.095201 28632 net.cpp:165] Memory required for data: 504209784
I1018 10:20:59.095203 28632 layer_factory.hpp:77] Creating layer fc6
I1018 10:20:59.095211 28632 net.cpp:106] Creating Layer fc6
I1018 10:20:59.095213 28632 net.cpp:454] fc6 <- roi_pool_conv5
I1018 10:20:59.095216 28632 net.cpp:411] fc6 -> fc6
I1018 10:20:59.146157 28632 net.cpp:150] Setting up fc6
I1018 10:20:59.146183 28632 net.cpp:157] Top shape: 1 4096 (4096)
I1018 10:20:59.146185 28632 net.cpp:165] Memory required for data: 504226168
I1018 10:20:59.146194 28632 layer_factory.hpp:77] Creating layer relu6
I1018 10:20:59.146203 28632 net.cpp:106] Creating Layer relu6
I1018 10:20:59.146209 28632 net.cpp:454] relu6 <- fc6
I1018 10:20:59.146214 28632 net.cpp:397] relu6 -> fc6 (in-place)
I1018 10:20:59.146394 28632 net.cpp:150] Setting up relu6
I1018 10:20:59.146400 28632 net.cpp:157] Top shape: 1 4096 (4096)
I1018 10:20:59.146402 28632 net.cpp:165] Memory required for data: 504242552
I1018 10:20:59.146405 28632 layer_factory.hpp:77] Creating layer drop6
I1018 10:20:59.146414 28632 net.cpp:106] Creating Layer drop6
I1018 10:20:59.146417 28632 net.cpp:454] drop6 <- fc6
I1018 10:20:59.146420 28632 net.cpp:397] drop6 -> fc6 (in-place)
I1018 10:20:59.146451 28632 net.cpp:150] Setting up drop6
I1018 10:20:59.146456 28632 net.cpp:157] Top shape: 1 4096 (4096)
I1018 10:20:59.146458 28632 net.cpp:165] Memory required for data: 504258936
I1018 10:20:59.146461 28632 layer_factory.hpp:77] Creating layer fc7
I1018 10:20:59.146466 28632 net.cpp:106] Creating Layer fc7
I1018 10:20:59.146468 28632 net.cpp:454] fc7 <- fc6
I1018 10:20:59.146473 28632 net.cpp:411] fc7 -> fc7
I1018 10:20:59.169297 28632 net.cpp:150] Setting up fc7
I1018 10:20:59.169322 28632 net.cpp:157] Top shape: 1 4096 (4096)
I1018 10:20:59.169325 28632 net.cpp:165] Memory required for data: 504275320
I1018 10:20:59.169334 28632 layer_factory.hpp:77] Creating layer relu7
I1018 10:20:59.169342 28632 net.cpp:106] Creating Layer relu7
I1018 10:20:59.169347 28632 net.cpp:454] relu7 <- fc7
I1018 10:20:59.169353 28632 net.cpp:397] relu7 -> fc7 (in-place)
I1018 10:20:59.169689 28632 net.cpp:150] Setting up relu7
I1018 10:20:59.169697 28632 net.cpp:157] Top shape: 1 4096 (4096)
I1018 10:20:59.169699 28632 net.cpp:165] Memory required for data: 504291704
I1018 10:20:59.169703 28632 layer_factory.hpp:77] Creating layer drop7
I1018 10:20:59.169708 28632 net.cpp:106] Creating Layer drop7
I1018 10:20:59.169710 28632 net.cpp:454] drop7 <- fc7
I1018 10:20:59.169716 28632 net.cpp:397] drop7 -> fc7 (in-place)
I1018 10:20:59.169745 28632 net.cpp:150] Setting up drop7
I1018 10:20:59.169750 28632 net.cpp:157] Top shape: 1 4096 (4096)
I1018 10:20:59.169752 28632 net.cpp:165] Memory required for data: 504308088
I1018 10:20:59.169754 28632 layer_factory.hpp:77] Creating layer fc7_drop7_0_split
I1018 10:20:59.169761 28632 net.cpp:106] Creating Layer fc7_drop7_0_split
I1018 10:20:59.169764 28632 net.cpp:454] fc7_drop7_0_split <- fc7
I1018 10:20:59.169776 28632 net.cpp:411] fc7_drop7_0_split -> fc7_drop7_0_split_0
I1018 10:20:59.169782 28632 net.cpp:411] fc7_drop7_0_split -> fc7_drop7_0_split_1
I1018 10:20:59.169818 28632 net.cpp:150] Setting up fc7_drop7_0_split
I1018 10:20:59.169832 28632 net.cpp:157] Top shape: 1 4096 (4096)
I1018 10:20:59.169836 28632 net.cpp:157] Top shape: 1 4096 (4096)
I1018 10:20:59.169837 28632 net.cpp:165] Memory required for data: 504340856
I1018 10:20:59.169839 28632 layer_factory.hpp:77] Creating layer cls_score
I1018 10:20:59.169857 28632 net.cpp:106] Creating Layer cls_score
I1018 10:20:59.169859 28632 net.cpp:454] cls_score <- fc7_drop7_0_split_0
I1018 10:20:59.169873 28632 net.cpp:411] cls_score -> cls_score
I1018 10:20:59.170159 28632 net.cpp:150] Setting up cls_score
I1018 10:20:59.170164 28632 net.cpp:157] Top shape: 1 2 (2)
I1018 10:20:59.170166 28632 net.cpp:165] Memory required for data: 504340864
I1018 10:20:59.170171 28632 layer_factory.hpp:77] Creating layer bbox_pred
I1018 10:20:59.170187 28632 net.cpp:106] Creating Layer bbox_pred
I1018 10:20:59.170191 28632 net.cpp:454] bbox_pred <- fc7_drop7_0_split_1
I1018 10:20:59.170194 28632 net.cpp:411] bbox_pred -> bbox_pred
I1018 10:20:59.171231 28632 net.cpp:150] Setting up bbox_pred
I1018 10:20:59.171239 28632 net.cpp:157] Top shape: 1 8 (8)
I1018 10:20:59.171241 28632 net.cpp:165] Memory required for data: 504340896
I1018 10:20:59.171250 28632 layer_factory.hpp:77] Creating layer loss_cls
I1018 10:20:59.171259 28632 net.cpp:106] Creating Layer loss_cls
I1018 10:20:59.171272 28632 net.cpp:454] loss_cls <- cls_score
I1018 10:20:59.171275 28632 net.cpp:454] loss_cls <- labels
I1018 10:20:59.171279 28632 net.cpp:411] loss_cls -> cls_loss
…
I1018 10:20:59.171670 28632 net.cpp:150] Setting up loss_bbox
I1018 10:20:59.171675 28632 net.cpp:157] Top shape: (1)
I1018 10:20:59.171677 28632 net.cpp:160]     with loss weight 1
I1018 10:20:59.171680 28632 net.cpp:165] Memory required for data: 504340904
I1018 10:20:59.171684 28632 layer_factory.hpp:77] Creating layer rpn_conv1
I1018 10:20:59.171691 28632 net.cpp:106] Creating Layer rpn_conv1
I1018 10:20:59.171694 28632 net.cpp:454] rpn_conv1 <- conv5_relu5_0_split_1
I1018 10:20:59.171700 28632 net.cpp:411] rpn_conv1 -> rpn_conv1
I1018 10:20:59.185384 28632 net.cpp:150] Setting up rpn_conv1
I1018 10:20:59.185395 28632 net.cpp:157] Top shape: 2 256 39 64 (1277952)
I1018 10:20:59.185397 28632 net.cpp:165] Memory required for data: 509452712
I1018 10:20:59.185402 28632 layer_factory.hpp:77] Creating layer rpn_relu1
I1018 10:20:59.185406 28632 net.cpp:106] Creating Layer rpn_relu1
I1018 10:20:59.185410 28632 net.cpp:454] rpn_relu1 <- rpn_conv1
I1018 10:20:59.185415 28632 net.cpp:397] rpn_relu1 -> rpn_conv1 (in-place)
I1018 10:20:59.185655 28632 net.cpp:150] Setting up rpn_relu1
I1018 10:20:59.185664 28632 net.cpp:157] Top shape: 2 256 39 64 (1277952)
I1018 10:20:59.185667 28632 net.cpp:165] Memory required for data: 514564520
I1018 10:20:59.185670 28632 layer_factory.hpp:77] Creating layer rpn_conv1_rpn_relu1_0_split
I1018 10:20:59.185674 28632 net.cpp:106] Creating Layer rpn_conv1_rpn_relu1_0_split
I1018 10:20:59.185678 28632 net.cpp:454] rpn_conv1_rpn_relu1_0_split <- rpn_conv1
I1018 10:20:59.185681 28632 net.cpp:411] rpn_conv1_rpn_relu1_0_split -> rpn_conv1_rpn_relu1_0_split_0
I1018 10:20:59.185695 28632 net.cpp:411] rpn_conv1_rpn_relu1_0_split -> rpn_conv1_rpn_relu1_0_split_1
I1018 10:20:59.185739 28632 net.cpp:150] Setting up rpn_conv1_rpn_relu1_0_split
I1018 10:20:59.185745 28632 net.cpp:157] Top shape: 2 256 39 64 (1277952)
I1018 10:20:59.185747 28632 net.cpp:157] Top shape: 2 256 39 64 (1277952)
I1018 10:20:59.185750 28632 net.cpp:165] Memory required for data: 524788136
I1018 10:20:59.185751 28632 layer_factory.hpp:77] Creating layer rpn_cls_score
I1018 10:20:59.185760 28632 net.cpp:106] Creating Layer rpn_cls_score
I1018 10:20:59.185762 28632 net.cpp:454] rpn_cls_score <- rpn_conv1_rpn_relu1_0_split_0
I1018 10:20:59.185777 28632 net.cpp:411] rpn_cls_score -> rpn_cls_score
I1018 10:20:59.186558 28632 net.cpp:150] Setting up rpn_cls_score
I1018 10:20:59.186566 28632 net.cpp:157] Top shape: 2 18 39 64 (89856)
I1018 10:20:59.186568 28632 net.cpp:165] Memory required for data: 525147560
I1018 10:20:59.186573 28632 layer_factory.hpp:77] Creating layer rpn_bbox_pred
I1018 10:20:59.186585 28632 net.cpp:106] Creating Layer rpn_bbox_pred
I1018 10:20:59.186599 28632 net.cpp:454] rpn_bbox_pred <- rpn_conv1_rpn_relu1_0_split_1
I1018 10:20:59.186604 28632 net.cpp:411] rpn_bbox_pred -> rpn_bbox_pred
I1018 10:20:59.187394 28632 net.cpp:150] Setting up rpn_bbox_pred
I1018 10:20:59.187403 28632 net.cpp:157] Top shape: 2 36 39 64 (179712)
I1018 10:20:59.187407 28632 net.cpp:165] Memory required for data: 525866408
I1018 10:20:59.187410 28632 layer_factory.hpp:77] Creating layer silence_rpn_cls_score
I1018 10:20:59.187417 28632 net.cpp:106] Creating Layer silence_rpn_cls_score
I1018 10:20:59.187419 28632 net.cpp:454] silence_rpn_cls_score <- rpn_cls_score
I1018 10:20:59.187433 28632 net.cpp:150] Setting up silence_rpn_cls_score
…
           'RPN_POST_NMS_TOP_N': 2000,
           'RPN_PRE_NMS_TOP_N': 12000,
           'SCALES': [600],
           'SNAPSHOT_INFIX': '',
           'SNAPSHOT_ITERS': 10000,
           'USE_FLIPPED': True,
           'USE_PREFETCH': False},
 'USE_GPU_NMS': True}
WARNING: Logging before InitGoogleLogging() is written to STDERR
I1018 10:25:30.989131 28685 net.cpp:49] Initializing net from parameters: 
name: "ZF"
input: "data"
input: "im_info"
state {
  phase: TEST
}
input_shape {
  dim: 1
  dim: 3
  dim: 224
  dim: 224
}
input_shape {
  dim: 1
  dim: 3
}
layer {
  name: "conv1"
  type: "Convolution"
  bottom: "data"
  top: "conv1"
  convolution_param {
    num_output: 96
    pad: 3
    kernel_size: 7
    stride: 2
  }
}
layer {
  name: "relu1"
  type: "ReLU"
  bottom: "conv1"
  top: "conv1"
}
layer {
  name: "norm1"
  type: "LRN"
  bottom: "conv1"
  top: "norm1"
  lrn_param {
    local_size: 3
    alpha: 5e-05
    beta: 0.75
    norm_region: WITHIN_CHANNEL
    engine: CAFFE
  }
}
layer {
  name: "pool1"
  type: "Pooling"
  bottom: "norm1"
  top: "pool1"
  pooling_param {
    pool: MAX
    kernel_size: 3
    stride: 2
    pad: 1
  }
}
layer {
  name: "conv2"
  type: "Convolution"
  bottom: "pool1"
  top: "conv2"
  convolution_param {
    num_output: 256
    pad: 2
    kernel_size: 5
    stride: 2
  }
}
layer {
  name: "relu2"
  type: "ReLU"
  bottom: "conv2"
  top: "conv2"
}
layer {
  name: "norm2"
  type: "LRN"
  bottom: "conv2"
  top: "norm2"
  lrn_param {
    local_size: 3
    alpha: 5e-05
    beta: 0.75
    norm_region: WITHIN_CHANNEL
    engine: CAFFE
  }
}
layer {
  name: "pool2"
  type: "Pooling"
  bottom: "norm2"
  top: "pool2"
  pooling_param {
    pool: MAX
    kernel_size: 3
    stride: 2
    pad: 1
  }
}
layer {
  name: "conv3"
  type: "Convolution"
  bottom: "pool2"
  top: "conv3"
  convolution_param {
    num_output: 384
    pad: 1
    kernel_size: 3
    stride: 1
  }
}
layer {
  name: "relu3"
  type: "ReLU"
  bottom: "conv3"
  top: "conv3"
}
layer {
  name: "conv4"
  type: "Convolution"
  bottom: "conv3"
  top: "conv4"
  convolution_param {
    num_output: 384
    pad: 1
    kernel_size: 3
    stride: 1
  }
}
layer {
  name: "relu4"
  type: "ReLU"
  bottom: "conv4"
  top: "conv4"
}
layer {
  name: "conv5"
  type: "Convolution"
  bottom: "conv4"
  top: "conv5"
  convolution_param {
    num_output: 256
    pad: 1
    kernel_size: 3
    stride: 1
  }
}
layer {
  name: "relu5"
  type: "ReLU"
  bottom: "conv5"
  top: "conv5"
}
layer {
  name: "rpn_conv1"
  type: "Convolution"
  bottom: "conv5"
  top: "rpn_conv1"
  convolution_param {
    num_output: 256
    pad: 1
    kernel_size: 3
    stride: 1
  }
}
layer {
  name: "rpn_relu1"
  type: "ReLU"
  bottom: "rpn_conv1"
  top: "rpn_conv1"
}
layer {
  name: "rpn_cls_score"
  type: "Convolution"
  bottom: "rpn_conv1"
  top: "rpn_cls_score"
  convolution_param {
    num_output: 18
    pad: 0
    kernel_size: 1
    stride: 1
  }
}
layer {
  name: "rpn_bbox_pred"
  type: "Convolution"
  bottom: "rpn_conv1"
  top: "rpn_bbox_pred"
  convolution_param {
    num_output: 36
    pad: 0
    kernel_size: 1
    stride: 1
  }
}
layer {
  name: "rpn_cls_score_reshape"
  type: "Reshape"
  bottom: "rpn_cls_score"
  top: "rpn_cls_score_reshape"
  reshape_param {
    shape {
      dim: 0
      dim: 2
      dim: -1
      dim: 0
    }
  }
}
layer {
  name: "rpn_cls_prob"
  type: "Softmax"
  bottom: "rpn_cls_score_reshape"
  top: "rpn_cls_prob"
}
layer {
  name: "rpn_cls_prob_reshape"
  type: "Reshape"
  bottom: "rpn_cls_prob"
  top: "rpn_cls_prob_reshape"
  reshape_param {
    shape {
      dim: 0
      dim: 18
      dim: -1
      dim: 0
    }
  }
}
layer {
  name: "proposal"
  type: "Python"
  bottom: "rpn_cls_prob_reshape"
  bottom: "rpn_bbox_pred"
  bottom: "im_info"
  top: "rois"
  python_param {
    module: "rpn.proposal_layer"
    layer: "ProposalLayer"
    param_str: "\'feat_stride\': 16"
  }
}
layer {
  name: "roi_pool_conv5"
  type: "ROIPooling"
  bottom: "conv5"
  bottom: "rois"
  top: "roi_pool_conv5"
  roi_pooling_param {
    pooled_h: 6
    pooled_w: 6
    spatial_scale: 0.0625
  }
}
layer {
  name: "fc6"
  type: "InnerProduct"
  bottom: "roi_pool_conv5"
  top: "fc6"
  inner_product_param {
    num_output: 4096
  }
}
layer {
  name: "relu6"
  type: "ReLU"
  bottom: "fc6"
  top: "fc6"
}
layer {
  name: "drop6"
  type: "Dropout"
  bottom: "fc6"
  top: "fc6"
  dropout_param {
    dropout_ratio: 0.5
    scale_train: false
  }
}
layer {
  name: "fc7"
  type: "InnerProduct"
  bottom: "fc6"
  top: "fc7"
  inner_product_param {
    num_output: 4096
  }
}
layer {
  name: "relu7"
  type: "ReLU"
  bottom: "fc7"
  top: "fc7"
}
layer {
  name: "drop7"
  type: "Dropout"
  bottom: "fc7"
  top: "fc7"
  dropout_param {
    dropout_ratio: 0.5
    scale_train: false
  }
}
layer {
  name: "cls_score"
  type: "InnerProduct"
  bottom: "fc7"
  top: "cls_score"
  inner_product_param {
    num_output: 2
  }
}
layer {
  name: "bbox_pred"
  type: "InnerProduct"
  bottom: "fc7"
  top: "bbox_pred"
  inner_product_param {
    num_output: 8
  }
}
layer {
  name: "cls_prob"
  type: "Softmax"
  bottom: "cls_score"
  top: "cls_prob"
  loss_param {
    ignore_label: -1
    normalize: true
  }
}
I1018 10:25:30.989295 28685 net.cpp:413] Input 0 -> data
I1018 10:25:30.996556 28685 net.cpp:413] Input 1 -> im_info
I1018 10:25:30.996609 28685 layer_factory.hpp:77] Creating layer conv1
I1018 10:25:30.996634 28685 net.cpp:106] Creating Layer conv1
I1018 10:25:30.996640 28685 net.cpp:454] conv1 <- data
I1018 10:25:30.996650 28685 net.cpp:411] conv1 -> conv1
I1018 10:25:31.105764 28685 net.cpp:150] Setting up conv1
I1018 10:25:31.105790 28685 net.cpp:157] Top shape: 1 96 112 112 (1204224)
I1018 10:25:31.105795 28685 net.cpp:165] Memory required for data: 4816896
I1018 10:25:31.105826 28685 layer_factory.hpp:77] Creating layer relu1
I1018 10:25:31.105842 28685 net.cpp:106] Creating Layer relu1
I1018 10:25:31.105849 28685 net.cpp:454] relu1 <- conv1
I1018 10:25:31.105856 28685 net.cpp:397] relu1 -> conv1 (in-place)
I1018 10:25:31.106091 28685 net.cpp:150] Setting up relu1
I1018 10:25:31.106101 28685 net.cpp:157] Top shape: 1 96 112 112 (1204224)
I1018 10:25:31.106104 28685 net.cpp:165] Memory required for data: 9633792
I1018 10:25:31.106119 28685 layer_factory.hpp:77] Creating layer norm1
I1018 10:25:31.106132 28685 net.cpp:106] Creating Layer norm1
I1018 10:25:31.106135 28685 net.cpp:454] norm1 <- conv1
I1018 10:25:31.106142 28685 net.cpp:411] norm1 -> norm1
I1018 10:25:31.106256 28685 net.cpp:150] Setting up norm1
I1018 10:25:31.106264 28685 net.cpp:157] Top shape: 1 96 112 112 (1204224)
I1018 10:25:31.106268 28685 net.cpp:165] Memory required for data: 14450688
I1018 10:25:31.106282 28685 layer_factory.hpp:77] Creating layer pool1
I1018 10:25:31.106290 28685 net.cpp:106] Creating Layer pool1
I1018 10:25:31.106295 28685 net.cpp:454] pool1 <- norm1
I1018 10:25:31.106302 28685 net.cpp:411] pool1 -> pool1
I1018 10:25:31.106333 28685 net.cpp:150] Setting up pool1
I1018 10:25:31.106349 28685 net.cpp:157] Top shape: 1 96 57 57 (311904)
I1018 10:25:31.106353 28685 net.cpp:165] Memory required for data: 15698304
I1018 10:25:31.106367 28685 layer_factory.hpp:77] Creating layer conv2
I1018 10:25:31.106377 28685 net.cpp:106] Creating Layer conv2
I1018 10:25:31.106384 28685 net.cpp:454] conv2 <- pool1
I1018 10:25:31.106390 28685 net.cpp:411] conv2 -> conv2
I1018 10:25:31.108094 28685 net.cpp:150] Setting up conv2
I1018 10:25:31.108111 28685 net.cpp:157] Top shape: 1 256 29 29 (215296)
I1018 10:25:31.108116 28685 net.cpp:165] Memory required for data: 16559488
I1018 10:25:31.108139 28685 layer_factory.hpp:77] Creating layer relu2
I1018 10:25:31.108149 28685 net.cpp:106] Creating Layer relu2
I1018 10:25:31.108158 28685 net.cpp:454] relu2 <- conv2
I1018 10:25:31.108165 28685 net.cpp:397] relu2 -> conv2 (in-place)
I1018 10:25:31.108394 28685 net.cpp:150] Setting up relu2
I1018 10:25:31.108404 28685 net.cpp:157] Top shape: 1 256 29 29 (215296)
I1018 10:25:31.108408 28685 net.cpp:165] Memory required for data: 17420672
I1018 10:25:31.108423 28685 layer_factory.hpp:77] Creating layer norm2
I1018 10:25:31.108431 28685 net.cpp:106] Creating Layer norm2
I1018 10:25:31.108435 28685 net.cpp:454] norm2 <- conv2
I1018 10:25:31.108441 28685 net.cpp:411] norm2 -> norm2
I1018 10:25:31.108536 28685 net.cpp:150] Setting up norm2
I1018 10:25:31.108543 28685 net.cpp:157] Top shape: 1 256 29 29 (215296)
I1018 10:25:31.108548 28685 net.cpp:165] Memory required for data: 18281856
I1018 10:25:31.108552 28685 layer_factory.hpp:77] Creating layer pool2
I1018 10:25:31.108559 28685 net.cpp:106] Creating Layer pool2
I1018 10:25:31.108563 28685 net.cpp:454] pool2 <- norm2
I1018 10:25:31.108570 28685 net.cpp:411] pool2 -> pool2
I1018 10:25:31.108623 28685 net.cpp:150] Setting up pool2
I1018 10:25:31.108639 28685 net.cpp:157] Top shape: 1 256 15 15 (57600)
I1018 10:25:31.108654 28685 net.cpp:165] Memory required for data: 18512256
I1018 10:25:31.108657 28685 layer_factory.hpp:77] Creating layer conv3
I1018 10:25:31.108669 28685 net.cpp:106] Creating Layer conv3
I1018 10:25:31.108672 28685 net.cpp:454] conv3 <- pool2
I1018 10:25:31.108680 28685 net.cpp:411] conv3 -> conv3
I1018 10:25:31.110517 28685 net.cpp:150] Setting up conv3
I1018 10:25:31.110533 28685 net.cpp:157] Top shape: 1 384 15 15 (86400)
I1018 10:25:31.110538 28685 net.cpp:165] Memory required for data: 18857856
I1018 10:25:31.110559 28685 layer_factory.hpp:77] Creating layer relu3
I1018 10:25:31.110568 28685 net.cpp:106] Creating Layer relu3
I1018 10:25:31.110572 28685 net.cpp:454] relu3 <- conv3
I1018 10:25:31.110581 28685 net.cpp:397] relu3 -> conv3 (in-place)
I1018 10:25:31.110715 28685 net.cpp:150] Setting up relu3
I1018 10:25:31.110725 28685 net.cpp:157] Top shape: 1 384 15 15 (86400)
I1018 10:25:31.110729 28685 net.cpp:165] Memory required for data: 19203456
I1018 10:25:31.110743 28685 layer_factory.hpp:77] Creating layer conv4
I1018 10:25:31.110752 28685 net.cpp:106] Creating Layer conv4
I1018 10:25:31.110756 28685 net.cpp:454] conv4 <- conv3
I1018 10:25:31.110764 28685 net.cpp:411] conv4 -> conv4
I1018 10:25:31.113278 28685 net.cpp:150] Setting up conv4
I1018 10:25:31.113299 28685 net.cpp:157] Top shape: 1 384 15 15 (86400)
I1018 10:25:31.113303 28685 net.cpp:165] Memory required for data: 19549056
I1018 10:25:31.113312 28685 layer_factory.hpp:77] Creating layer relu4
I1018 10:25:31.113322 28685 net.cpp:106] Creating Layer relu4
I1018 10:25:31.113327 28685 net.cpp:454] relu4 <- conv4
I1018 10:25:31.113335 28685 net.cpp:397] relu4 -> conv4 (in-place)
I1018 10:25:31.113539 28685 net.cpp:150] Setting up relu4
I1018 10:25:31.113549 28685 net.cpp:157] Top shape: 1 384 15 15 (86400)
I1018 10:25:31.113554 28685 net.cpp:165] Memory required for data: 19894656
I1018 10:25:31.113557 28685 layer_factory.hpp:77] Creating layer conv5
I1018 10:25:31.113569 28685 net.cpp:106] Creating Layer conv5
I1018 10:25:31.113577 28685 net.cpp:454] conv5 <- conv4
I1018 10:25:31.113587 28685 net.cpp:411] conv5 -> conv5
I1018 10:25:31.115334 28685 net.cpp:150] Setting up conv5
I1018 10:25:31.115346 28685 net.cpp:157] Top shape: 1 256 15 15 (57600)
I1018 10:25:31.115350 28685 net.cpp:165] Memory required for data: 20125056
I1018 10:25:31.115365 28685 layer_factory.hpp:77] Creating layer relu5
I1018 10:25:31.115372 28685 net.cpp:106] Creating Layer relu5
I1018 10:25:31.115380 28685 net.cpp:454] relu5 <- conv5
I1018 10:25:31.115387 28685 net.cpp:397] relu5 -> conv5 (in-place)
I1018 10:25:31.115586 28685 net.cpp:150] Setting up relu5
I1018 10:25:31.115595 28685 net.cpp:157] Top shape: 1 256 15 15 (57600)
I1018 10:25:31.115602 28685 net.cpp:165] Memory required for data: 20355456
I1018 10:25:31.115605 28685 layer_factory.hpp:77] Creating layer conv5_relu5_0_split
I1018 10:25:31.115612 28685 net.cpp:106] Creating Layer conv5_relu5_0_split
I1018 10:25:31.115617 28685 net.cpp:454] conv5_relu5_0_split <- conv5
I1018 10:25:31.115622 28685 net.cpp:411] conv5_relu5_0_split -> conv5_relu5_0_split_0
I1018 10:25:31.115630 28685 net.cpp:411] conv5_relu5_0_split -> conv5_relu5_0_split_1
I1018 10:25:31.115667 28685 net.cpp:150] Setting up conv5_relu5_0_split
I1018 10:25:31.115675 28685 net.cpp:157] Top shape: 1 256 15 15 (57600)
I1018 10:25:31.115681 28685 net.cpp:157] Top shape: 1 256 15 15 (57600)
I1018 10:25:31.115685 28685 net.cpp:165] Memory required for data: 20816256
I1018 10:25:31.115689 28685 layer_factory.hpp:77] Creating layer rpn_conv1
I1018 10:25:31.115698 28685 net.cpp:106] Creating Layer rpn_conv1
I1018 10:25:31.115702 28685 net.cpp:454] rpn_conv1 <- conv5_relu5_0_split_0
I1018 10:25:31.115710 28685 net.cpp:411] rpn_conv1 -> rpn_conv1
I1018 10:25:31.117143 28685 net.cpp:150] Setting up rpn_conv1
I1018 10:25:31.117156 28685 net.cpp:157] Top shape: 1 256 15 15 (57600)
I1018 10:25:31.117161 28685 net.cpp:165] Memory required for data: 21046656
I1018 10:25:31.117168 28685 layer_factory.hpp:77] Creating layer rpn_relu1
I1018 10:25:31.117179 28685 net.cpp:106] Creating Layer rpn_relu1
I1018 10:25:31.117184 28685 net.cpp:454] rpn_relu1 <- rpn_conv1
I1018 10:25:31.117190 28685 net.cpp:397] rpn_relu1 -> rpn_conv1 (in-place)
I1018 10:25:31.117312 28685 net.cpp:150] Setting up rpn_relu1
I1018 10:25:31.117321 28685 net.cpp:157] Top shape: 1 256 15 15 (57600)
I1018 10:25:31.117326 28685 net.cpp:165] Memory required for data: 21277056
I1018 10:25:31.117331 28685 layer_factory.hpp:77] Creating layer rpn_conv1_rpn_relu1_0_split
I1018 10:25:31.117336 28685 net.cpp:106] Creating Layer rpn_conv1_rpn_relu1_0_split
I1018 10:25:31.117341 28685 net.cpp:454] rpn_conv1_rpn_relu1_0_split <- rpn_conv1
I1018 10:25:31.117348 28685 net.cpp:411] rpn_conv1_rpn_relu1_0_split -> rpn_conv1_rpn_relu1_0_split_0
I1018 10:25:31.117357 28685 net.cpp:411] rpn_conv1_rpn_relu1_0_split -> rpn_conv1_rpn_relu1_0_split_1
I1018 10:25:31.117393 28685 net.cpp:150] Setting up rpn_conv1_rpn_relu1_0_split
I1018 10:25:31.117400 28685 net.cpp:157] Top shape: 1 256 15 15 (57600)
I1018 10:25:31.117405 28685 net.cpp:157] Top shape: 1 256 15 15 (57600)
I1018 10:25:31.117409 28685 net.cpp:165] Memory required for data: 21737856
I1018 10:25:31.117413 28685 layer_factory.hpp:77] Creating layer rpn_cls_score
I1018 10:25:31.117421 28685 net.cpp:106] Creating Layer rpn_cls_score
I1018 10:25:31.117425 28685 net.cpp:454] rpn_cls_score <- rpn_conv1_rpn_relu1_0_split_0
I1018 10:25:31.117434 28685 net.cpp:411] rpn_cls_score -> rpn_cls_score
I1018 10:25:31.118283 28685 net.cpp:150] Setting up rpn_cls_score
I1018 10:25:31.118294 28685 net.cpp:157] Top shape: 1 18 15 15 (4050)
I1018 10:25:31.118299 28685 net.cpp:165] Memory required for data: 21754056
I1018 10:25:31.118307 28685 layer_factory.hpp:77] Creating layer rpn_bbox_pred
I1018 10:25:31.118316 28685 net.cpp:106] Creating Layer rpn_bbox_pred
I1018 10:25:31.118321 28685 net.cpp:454] rpn_bbox_pred <- rpn_conv1_rpn_relu1_0_split_1
I1018 10:25:31.118330 28685 net.cpp:411] rpn_bbox_pred -> rpn_bbox_pred
I1018 10:25:31.119036 28685 net.cpp:150] Setting up rpn_bbox_pred
I1018 10:25:31.119046 28685 net.cpp:157] Top shape: 1 36 15 15 (8100)
I1018 10:25:31.119051 28685 net.cpp:165] Memory required for data: 21786456
I1018 10:25:31.119058 28685 layer_factory.hpp:77] Creating layer rpn_cls_score_reshape
I1018 10:25:31.119071 28685 net.cpp:106] Creating Layer rpn_cls_score_reshape
I1018 10:25:31.119077 28685 net.cpp:454] rpn_cls_score_reshape <- rpn_cls_score
I1018 10:25:31.119084 28685 net.cpp:411] rpn_cls_score_reshape -> rpn_cls_score_reshape
I1018 10:25:31.119114 28685 net.cpp:150] Setting up rpn_cls_score_reshape
I1018 10:25:31.119122 28685 net.cpp:157] Top shape: 1 2 135 15 (4050)
I1018 10:25:31.119125 28685 net.cpp:165] Memory required for data: 21802656
I1018 10:25:31.119129 28685 layer_factory.hpp:77] Creating layer rpn_cls_prob
I1018 10:25:31.119135 28685 net.cpp:106] Creating Layer rpn_cls_prob
I1018 10:25:31.119139 28685 net.cpp:454] rpn_cls_prob <- rpn_cls_score_reshape
I1018 10:25:31.119148 28685 net.cpp:411] rpn_cls_prob -> rpn_cls_prob
I1018 10:25:31.119303 28685 net.cpp:150] Setting up rpn_cls_prob
I1018 10:25:31.119313 28685 net.cpp:157] Top shape: 1 2 135 15 (4050)
I1018 10:25:31.119316 28685 net.cpp:165] Memory required for data: 21818856
I1018 10:25:31.119320 28685 layer_factory.hpp:77] Creating layer rpn_cls_prob_reshape
I1018 10:25:31.119326 28685 net.cpp:106] Creating Layer rpn_cls_prob_reshape
I1018 10:25:31.119330 28685 net.cpp:454] rpn_cls_prob_reshape <- rpn_cls_prob
I1018 10:25:31.119338 28685 net.cpp:411] rpn_cls_prob_reshape -> rpn_cls_prob_reshape
I1018 10:25:31.119362 28685 net.cpp:150] Setting up rpn_cls_prob_reshape
I1018 10:25:31.119369 28685 net.cpp:157] Top shape: 1 18 15 15 (4050)
I1018 10:25:31.119374 28685 net.cpp:165] Memory required for data: 21835056
I1018 10:25:31.119377 28685 layer_factory.hpp:77] Creating layer proposal
I1018 10:25:31.119714 28685 net.cpp:106] Creating Layer proposal
I1018 10:25:31.119722 28685 net.cpp:454] proposal <- rpn_cls_prob_reshape
I1018 10:25:31.119729 28685 net.cpp:454] proposal <- rpn_bbox_pred
I1018 10:25:31.119734 28685 net.cpp:454] proposal <- im_info
I1018 10:25:31.119740 28685 net.cpp:411] proposal -> rois
I1018 10:25:31.120232 28685 net.cpp:150] Setting up proposal
I1018 10:25:31.120244 28685 net.cpp:157] Top shape: 1 5 (5)
I1018 10:25:31.120249 28685 net.cpp:165] Memory required for data: 21835076
I1018 10:25:31.120252 28685 layer_factory.hpp:77] Creating layer roi_pool_conv5
I1018 10:25:31.120260 28685 net.cpp:106] Creating Layer roi_pool_conv5
I1018 10:25:31.120265 28685 net.cpp:454] roi_pool_conv5 <- conv5_relu5_0_split_1
I1018 10:25:31.120271 28685 net.cpp:454] roi_pool_conv5 <- rois
I1018 10:25:31.120277 28685 net.cpp:411] roi_pool_conv5 -> roi_pool_conv5
I1018 10:25:31.120288 28685 roi_pooling_layer.cpp:30] Spatial scale: 0.0625
I1018 10:25:31.120332 28685 net.cpp:150] Setting up roi_pool_conv5
I1018 10:25:31.120339 28685 net.cpp:157] Top shape: 1 256 6 6 (9216)
I1018 10:25:31.120343 28685 net.cpp:165] Memory required for data: 21871940
I1018 10:25:31.120347 28685 layer_factory.hpp:77] Creating layer fc6
I1018 10:25:31.120355 28685 net.cpp:106] Creating Layer fc6
I1018 10:25:31.120360 28685 net.cpp:454] fc6 <- roi_pool_conv5
I1018 10:25:31.120367 28685 net.cpp:411] fc6 -> fc6
I1018 10:25:31.172330 28685 net.cpp:150] Setting up fc6
I1018 10:25:31.172359 28685 net.cpp:157] Top shape: 1 4096 (4096)
I1018 10:25:31.172364 28685 net.cpp:165] Memory required for data: 21888324
I1018 10:25:31.172382 28685 layer_factory.hpp:77] Creating layer relu6
I1018 10:25:31.172396 28685 net.cpp:106] Creating Layer relu6
I1018 10:25:31.172410 28685 net.cpp:454] relu6 <- fc6
I1018 10:25:31.172418 28685 net.cpp:397] relu6 -> fc6 (in-place)
I1018 10:25:31.172713 28685 net.cpp:150] Setting up relu6
I1018 10:25:31.172725 28685 net.cpp:157] Top shape: 1 4096 (4096)
I1018 10:25:31.172729 28685 net.cpp:165] Memory required for data: 21904708
I1018 10:25:31.172734 28685 layer_factory.hpp:77] Creating layer drop6
I1018 10:25:31.172749 28685 net.cpp:106] Creating Layer drop6
I1018 10:25:31.172755 28685 net.cpp:454] drop6 <- fc6
I1018 10:25:31.172765 28685 net.cpp:397] drop6 -> fc6 (in-place)
I1018 10:25:31.172798 28685 net.cpp:150] Setting up drop6
I1018 10:25:31.172806 28685 net.cpp:157] Top shape: 1 4096 (4096)
I1018 10:25:31.172808 28685 net.cpp:165] Memory required for data: 21921092
I1018 10:25:31.172812 28685 layer_factory.hpp:77] Creating layer fc7
I1018 10:25:31.172819 28685 net.cpp:106] Creating Layer fc7
I1018 10:25:31.172823 28685 net.cpp:454] fc7 <- fc6
I1018 10:25:31.172832 28685 net.cpp:411] fc7 -> fc7
I1018 10:25:31.195796 28685 net.cpp:150] Setting up fc7
I1018 10:25:31.195827 28685 net.cpp:157] Top shape: 1 4096 (4096)
I1018 10:25:31.195832 28685 net.cpp:165] Memory required for data: 21937476
I1018 10:25:31.195843 28685 layer_factory.hpp:77] Creating layer relu7
I1018 10:25:31.195854 28685 net.cpp:106] Creating Layer relu7
I1018 10:25:31.195860 28685 net.cpp:454] relu7 <- fc7
I1018 10:25:31.195868 28685 net.cpp:397] relu7 -> fc7 (in-place)
I1018 10:25:31.196041 28685 net.cpp:150] Setting up relu7
I1018 10:25:31.196053 28685 net.cpp:157] Top shape: 1 4096 (4096)
I1018 10:25:31.196056 28685 net.cpp:165] Memory required for data: 21953860
I1018 10:25:31.196060 28685 layer_factory.hpp:77] Creating layer drop7
I1018 10:25:31.196069 28685 net.cpp:106] Creating Layer drop7
I1018 10:25:31.196074 28685 net.cpp:454] drop7 <- fc7
I1018 10:25:31.196082 28685 net.cpp:397] drop7 -> fc7 (in-place)
I1018 10:25:31.196112 28685 net.cpp:150] Setting up drop7
I1018 10:25:31.196120 28685 net.cpp:157] Top shape: 1 4096 (4096)
I1018 10:25:31.196123 28685 net.cpp:165] Memory required for data: 21970244
I1018 10:25:31.196127 28685 layer_factory.hpp:77] Creating layer fc7_drop7_0_split
I1018 10:25:31.196135 28685 net.cpp:106] Creating Layer fc7_drop7_0_split
I1018 10:25:31.196141 28685 net.cpp:454] fc7_drop7_0_split <- fc7
I1018 10:25:31.196146 28685 net.cpp:411] fc7_drop7_0_split -> fc7_drop7_0_split_0
I1018 10:25:31.196153 28685 net.cpp:411] fc7_drop7_0_split -> fc7_drop7_0_split_1
I1018 10:25:31.196194 28685 net.cpp:150] Setting up fc7_drop7_0_split
I1018 10:25:31.196202 28685 net.cpp:157] Top shape: 1 4096 (4096)
I1018 10:25:31.196207 28685 net.cpp:157] Top shape: 1 4096 (4096)
I1018 10:25:31.196209 28685 net.cpp:165] Memory required for data: 22003012
I1018 10:25:31.196213 28685 layer_factory.hpp:77] Creating layer cls_score
I1018 10:25:31.196225 28685 net.cpp:106] Creating Layer cls_score
I1018 10:25:31.196231 28685 net.cpp:454] cls_score <- fc7_drop7_0_split_0
I1018 10:25:31.196238 28685 net.cpp:411] cls_score -> cls_score
I1018 10:25:31.196321 28685 net.cpp:150] Setting up cls_score
I1018 10:25:31.196327 28685 net.cpp:157] Top shape: 1 2 (2)
I1018 10:25:31.196331 28685 net.cpp:165] Memory required for data: 22003020
I1018 10:25:31.196338 28685 layer_factory.hpp:77] Creating layer bbox_pred
I1018 10:25:31.196344 28685 net.cpp:106] Creating Layer bbox_pred
I1018 10:25:31.196348 28685 net.cpp:454] bbox_pred <- fc7_drop7_0_split_1
I1018 10:25:31.196357 28685 net.cpp:411] bbox_pred -> bbox_pred
I1018 10:25:31.196791 28685 net.cpp:150] Setting up bbox_pred
I1018 10:25:31.196801 28685 net.cpp:157] Top shape: 1 8 (8)
I1018 10:25:31.196805 28685 net.cpp:165] Memory required for data: 22003052
I1018 10:25:31.196813 28685 layer_factory.hpp:77] Creating layer cls_prob
I1018 10:25:31.196821 28685 net.cpp:106] Creating Layer cls_prob
I1018 10:25:31.196825 28685 net.cpp:454] cls_prob <- cls_score
I1018 10:25:31.196831 28685 net.cpp:411] cls_prob -> cls_prob
I1018 10:25:31.197106 28685 net.cpp:150] Setting up cls_prob
I1018 10:25:31.197118 28685 net.cpp:157] Top shape: 1 2 (2)
I1018 10:25:31.197121 28685 net.cpp:165] Memory required for data: 22003060
I1018 10:25:31.197126 28685 net.cpp:228] cls_prob does not need backward computation.
I1018 10:25:31.197130 28685 net.cpp:228] bbox_pred does not need backward computation.
I1018 10:25:31.197134 28685 net.cpp:228] cls_score does not need backward computation.
I1018 10:25:31.197139 28685 net.cpp:228] fc7_drop7_0_split does not need backward computation.
…
